{"format": "graph-model", "generatedBy": "2.4.0", "convertedBy": "TensorFlow.js Converter v3.0.0", "signature": {"inputs": {"input_1:0": {"name": "input_1:0", "dtype": "DT_FLOAT", "tensorShape": {"dim": [{"size": "1"}, {"size": "640"}, {"size": "640"}, {"size": "3"}]}}}, "outputs": {"Identity:0": {"name": "Identity:0", "dtype": "DT_FLOAT", "tensorShape": {"dim": [{"size": "1"}, {"size": "25200"}, {"size": "7"}]}}}}, "modelTopology": {"node": [{"name": "StatefulPartitionedCall/model/tf__detect/strided_slice_2/stack", "op": "Const", "attr": {"value": {"tensor": {"dtype": "DT_INT32", "tensorShape": {"dim": [{"size": "2"}]}}}, "dtype": {"type": "DT_INT32"}}}, {"name": "StatefulPartitionedCall/model/tf__detect/strided_slice_2/stack_1", "op": "Const", "attr": {"value": {"tensor": {"dtype": "DT_INT32", "tensorShape": {"dim": [{"size": "2"}]}}}, "dtype": {"type": "DT_INT32"}}}, {"name": "StatefulPartitionedCall/model/tf__detect/strided_slice_2/stack_2", "op": "Const", "attr": {"value": {"tensor": {"dtype": "DT_INT32", "tensorShape": {"dim": [{"size": "2"}]}}}, "dtype": {"type": "DT_INT32"}}}, {"name": "StatefulPartitionedCall/model/tf__detect/mul_1/y", "op": "Const", "attr": {"value": {"tensor": {"dtype": "DT_FLOAT", "tensorShape": {}}}, "dtype": {"type": "DT_FLOAT"}}}, {"name": "StatefulPartitionedCall/model/tf__detect/sub", "op": "Const", "attr": {"value": {"tensor": {"dtype": "DT_FLOAT", "tensorShape": {"dim": [{"size": "1"}, {"size": "1"}, {"size": "6400"}, {"size": "2"}]}}}, "dtype": {"type": "DT_FLOAT"}}}, {"name": "StatefulPartitionedCall/model/tf__detect/mul_2", "op": "Const", "attr": {"value": {"tensor": {"dtype": "DT_FLOAT", "tensorShape": {"dim": [{"size": "1"}, {"size": "2"}]}}}, "dtype": {"type": "DT_FLOAT"}}}, {"name": "StatefulPartitionedCall/model/tf__detect/strided_slice_4/stack", "op": "Const", "attr": {"value": {"tensor": {"dtype": "DT_INT32", "tensorShape": {"dim": [{"size": "2"}]}}}, "dtype": {"type": "DT_INT32"}}}, {"name": "StatefulPartitionedCall/model/tf__detect/strided_slice_4/stack_1", "op": "Const", "attr": {"value": {"tensor": {"dtype": "DT_INT32", "tensorShape": {"dim": [{"size": "2"}]}}}, "dtype": {"type": "DT_INT32"}}}, {"name": "StatefulPartitionedCall/model/tf__detect/strided_slice_4/stack_2", "op": "Const", "attr": {"value": {"tensor": {"dtype": "DT_INT32", "tensorShape": {"dim": [{"size": "2"}]}}}, "dtype": {"type": "DT_INT32"}}}, {"name": "StatefulPartitionedCall/model/tf__detect/mul_3/y", "op": "Const", "attr": {"value": {"tensor": {"dtype": "DT_FLOAT", "tensorShape": {}}}, "dtype": {"type": "DT_FLOAT"}}}, {"name": "StatefulPartitionedCall/model/tf__detect/mul_4", "op": "Const", "attr": {"value": {"tensor": {"dtype": "DT_FLOAT", "tensorShape": {"dim": [{"size": "1"}, {"size": "3"}, {"size": "1"}, {"size": "2"}]}}}, "dtype": {"type": "DT_FLOAT"}}}, {"name": "StatefulPartitionedCall/model/tf__detect/tf__conv2d/conv2d_59/Conv2D/ReadVariableOp", "op": "Const", "attr": {"value": {"tensor": {"dtype": "DT_FLOAT", "tensorShape": {"dim": [{"size": "1"}, {"size": "1"}, {"size": "128"}, {"size": "21"}]}}}, "dtype": {"type": "DT_FLOAT"}}}, {"name": "StatefulPartitionedCall/model/tf__detect/tf__conv2d/conv2d_59/BiasAdd/ReadVariableOp", "op": "Const", "attr": {"value": {"tensor": {"dtype": "DT_FLOAT", "tensorShape": {"dim": [{"size": "21"}]}}}, "dtype": {"type": "DT_FLOAT"}}}, {"name": "StatefulPartitionedCall/model/tf__detect/Reshape/shape_1", "op": "Const", "attr": {"value": {"tensor": {"dtype": "DT_INT32", "tensorShape": {"dim": [{"size": "4"}]}}}, "dtype": {"type": "DT_INT32"}}}, {"name": "StatefulPartitionedCall/model/tf__detect/transpose/perm", "op": "Const", "attr": {"value": {"tensor": {"dtype": "DT_INT32", "tensorShape": {"dim": [{"size": "4"}]}}}, "dtype": {"type": "DT_INT32"}}}, {"name": "StatefulPartitionedCall/model/tf__detect/strided_slice_6/stack", "op": "Const", "attr": {"value": {"tensor": {"dtype": "DT_INT32", "tensorShape": {"dim": [{"size": "2"}]}}}, "dtype": {"type": "DT_INT32"}}}, {"name": "StatefulPartitionedCall/model/tf__detect/strided_slice_6/stack_1", "op": "Const", "attr": {"dtype": {"type": "DT_INT32"}, "value": {"tensor": {"dtype": "DT_INT32", "tensorShape": {"dim": [{"size": "2"}]}}}}}, {"name": "StatefulPartitionedCall/model/tf__detect/strided_slice_6/stack_2", "op": "Const", "attr": {"value": {"tensor": {"dtype": "DT_INT32", "tensorShape": {"dim": [{"size": "2"}]}}}, "dtype": {"type": "DT_INT32"}}}, {"name": "StatefulPartitionedCall/model/tf__detect/concat/axis", "op": "Const", "attr": {"dtype": {"type": "DT_INT32"}, "value": {"tensor": {"dtype": "DT_INT32", "tensorShape": {}}}}}, {"name": "StatefulPartitionedCall/model/tf__detect/Reshape_1/shape_1", "op": "Const", "attr": {"value": {"tensor": {"dtype": "DT_INT32", "tensorShape": {"dim": [{"size": "3"}]}}}, "dtype": {"type": "DT_INT32"}}}, {"name": "StatefulPartitionedCall/model/tf__detect/strided_slice_9/stack", "op": "Const", "attr": {"value": {"tensor": {"dtype": "DT_INT32", "tensorShape": {"dim": [{"size": "2"}]}}}, "dtype": {"type": "DT_INT32"}}}, {"name": "StatefulPartitionedCall/model/tf__detect/strided_slice_9/stack_1", "op": "Const", "attr": {"dtype": {"type": "DT_INT32"}, "value": {"tensor": {"dtype": "DT_INT32", "tensorShape": {"dim": [{"size": "2"}]}}}}}, {"name": "StatefulPartitionedCall/model/tf__detect/strided_slice_9/stack_2", "op": "Const", "attr": {"value": {"tensor": {"dtype": "DT_INT32", "tensorShape": {"dim": [{"size": "2"}]}}}, "dtype": {"type": "DT_INT32"}}}, {"name": "StatefulPartitionedCall/model/tf__detect/mul_8/y", "op": "Const", "attr": {"value": {"tensor": {"dtype": "DT_FLOAT", "tensorShape": {}}}, "dtype": {"type": "DT_FLOAT"}}}, {"name": "StatefulPartitionedCall/model/tf__detect/sub_1", "op": "Const", "attr": {"value": {"tensor": {"dtype": "DT_FLOAT", "tensorShape": {"dim": [{"size": "1"}, {"size": "1"}, {"size": "1600"}, {"size": "2"}]}}}, "dtype": {"type": "DT_FLOAT"}}}, {"name": "StatefulPartitionedCall/model/tf__detect/mul_9", "op": "Const", "attr": {"value": {"tensor": {"dtype": "DT_FLOAT", "tensorShape": {"dim": [{"size": "1"}, {"size": "2"}]}}}, "dtype": {"type": "DT_FLOAT"}}}, {"name": "StatefulPartitionedCall/model/tf__detect/strided_slice_11/stack", "op": "Const", "attr": {"value": {"tensor": {"dtype": "DT_INT32", "tensorShape": {"dim": [{"size": "2"}]}}}, "dtype": {"type": "DT_INT32"}}}, {"name": "StatefulPartitionedCall/model/tf__detect/strided_slice_11/stack_1", "op": "Const", "attr": {"value": {"tensor": {"dtype": "DT_INT32", "tensorShape": {"dim": [{"size": "2"}]}}}, "dtype": {"type": "DT_INT32"}}}, {"name": "StatefulPartitionedCall/model/tf__detect/strided_slice_11/stack_2", "op": "Const", "attr": {"value": {"tensor": {"dtype": "DT_INT32", "tensorShape": {"dim": [{"size": "2"}]}}}, "dtype": {"type": "DT_INT32"}}}, {"name": "StatefulPartitionedCall/model/tf__detect/mul_10/y", "op": "Const", "attr": {"value": {"tensor": {"dtype": "DT_FLOAT", "tensorShape": {}}}, "dtype": {"type": "DT_FLOAT"}}}, {"name": "StatefulPartitionedCall/model/tf__detect/mul_11", "op": "Const", "attr": {"value": {"tensor": {"dtype": "DT_FLOAT", "tensorShape": {"dim": [{"size": "1"}, {"size": "3"}, {"size": "1"}, {"size": "2"}]}}}, "dtype": {"type": "DT_FLOAT"}}}, {"name": "StatefulPartitionedCall/model/tf__detect/tf__conv2d_1/conv2d_60/Conv2D/ReadVariableOp", "op": "Const", "attr": {"value": {"tensor": {"dtype": "DT_FLOAT", "tensorShape": {"dim": [{"size": "1"}, {"size": "1"}, {"size": "256"}, {"size": "21"}]}}}, "dtype": {"type": "DT_FLOAT"}}}, {"name": "StatefulPartitionedCall/model/tf__detect/tf__conv2d_1/conv2d_60/BiasAdd/ReadVariableOp", "op": "Const", "attr": {"value": {"tensor": {"dtype": "DT_FLOAT", "tensorShape": {"dim": [{"size": "21"}]}}}, "dtype": {"type": "DT_FLOAT"}}}, {"name": "StatefulPartitionedCall/model/tf__detect/Reshape_2/shape_1", "op": "Const", "attr": {"value": {"tensor": {"dtype": "DT_INT32", "tensorShape": {"dim": [{"size": "4"}]}}}, "dtype": {"type": "DT_INT32"}}}, {"name": "StatefulPartitionedCall/model/tf__detect/transpose_1/perm", "op": "Const", "attr": {"value": {"tensor": {"dtype": "DT_INT32", "tensorShape": {"dim": [{"size": "4"}]}}}, "dtype": {"type": "DT_INT32"}}}, {"name": "StatefulPartitionedCall/model/tf__detect/strided_slice_13/stack", "op": "Const", "attr": {"dtype": {"type": "DT_INT32"}, "value": {"tensor": {"dtype": "DT_INT32", "tensorShape": {"dim": [{"size": "2"}]}}}}}, {"name": "StatefulPartitionedCall/model/tf__detect/strided_slice_13/stack_1", "op": "Const", "attr": {"dtype": {"type": "DT_INT32"}, "value": {"tensor": {"dtype": "DT_INT32", "tensorShape": {"dim": [{"size": "2"}]}}}}}, {"name": "StatefulPartitionedCall/model/tf__detect/strided_slice_13/stack_2", "op": "Const", "attr": {"value": {"tensor": {"dtype": "DT_INT32", "tensorShape": {"dim": [{"size": "2"}]}}}, "dtype": {"type": "DT_INT32"}}}, {"name": "StatefulPartitionedCall/model/tf__detect/concat_1/axis", "op": "Const", "attr": {"value": {"tensor": {"dtype": "DT_INT32", "tensorShape": {}}}, "dtype": {"type": "DT_INT32"}}}, {"name": "StatefulPartitionedCall/model/tf__detect/Reshape_3/shape_1", "op": "Const", "attr": {"value": {"tensor": {"dtype": "DT_INT32", "tensorShape": {"dim": [{"size": "3"}]}}}, "dtype": {"type": "DT_INT32"}}}, {"name": "StatefulPartitionedCall/model/tf__detect/strided_slice_16/stack", "op": "Const", "attr": {"value": {"tensor": {"dtype": "DT_INT32", "tensorShape": {"dim": [{"size": "2"}]}}}, "dtype": {"type": "DT_INT32"}}}, {"name": "StatefulPartitionedCall/model/tf__detect/strided_slice_16/stack_1", "op": "Const", "attr": {"value": {"tensor": {"dtype": "DT_INT32", "tensorShape": {"dim": [{"size": "2"}]}}}, "dtype": {"type": "DT_INT32"}}}, {"name": "StatefulPartitionedCall/model/tf__detect/strided_slice_16/stack_2", "op": "Const", "attr": {"value": {"tensor": {"dtype": "DT_INT32", "tensorShape": {"dim": [{"size": "2"}]}}}, "dtype": {"type": "DT_INT32"}}}, {"name": "StatefulPartitionedCall/model/tf__detect/mul_15/y", "op": "Const", "attr": {"value": {"tensor": {"dtype": "DT_FLOAT", "tensorShape": {}}}, "dtype": {"type": "DT_FLOAT"}}}, {"name": "StatefulPartitionedCall/model/tf__detect/sub_2", "op": "Const", "attr": {"value": {"tensor": {"dtype": "DT_FLOAT", "tensorShape": {"dim": [{"size": "1"}, {"size": "1"}, {"size": "400"}, {"size": "2"}]}}}, "dtype": {"type": "DT_FLOAT"}}}, {"name": "StatefulPartitionedCall/model/tf__detect/mul_16", "op": "Const", "attr": {"value": {"tensor": {"dtype": "DT_FLOAT", "tensorShape": {"dim": [{"size": "1"}, {"size": "2"}]}}}, "dtype": {"type": "DT_FLOAT"}}}, {"name": "StatefulPartitionedCall/model/tf__detect/strided_slice_18/stack", "op": "Const", "attr": {"value": {"tensor": {"dtype": "DT_INT32", "tensorShape": {"dim": [{"size": "2"}]}}}, "dtype": {"type": "DT_INT32"}}}, {"name": "StatefulPartitionedCall/model/tf__detect/strided_slice_18/stack_1", "op": "Const", "attr": {"value": {"tensor": {"dtype": "DT_INT32", "tensorShape": {"dim": [{"size": "2"}]}}}, "dtype": {"type": "DT_INT32"}}}, {"name": "StatefulPartitionedCall/model/tf__detect/strided_slice_18/stack_2", "op": "Const", "attr": {"value": {"tensor": {"dtype": "DT_INT32", "tensorShape": {"dim": [{"size": "2"}]}}}, "dtype": {"type": "DT_INT32"}}}, {"name": "StatefulPartitionedCall/model/tf__detect/mul_17/y", "op": "Const", "attr": {"value": {"tensor": {"dtype": "DT_FLOAT", "tensorShape": {}}}, "dtype": {"type": "DT_FLOAT"}}}, {"name": "StatefulPartitionedCall/model/tf__detect/mul_18", "op": "Const", "attr": {"dtype": {"type": "DT_FLOAT"}, "value": {"tensor": {"dtype": "DT_FLOAT", "tensorShape": {"dim": [{"size": "1"}, {"size": "3"}, {"size": "1"}, {"size": "2"}]}}}}}, {"name": "StatefulPartitionedCall/model/tf__upsample_1/resize/size", "op": "Const", "attr": {"value": {"tensor": {"dtype": "DT_INT32", "tensorShape": {"dim": [{"size": "2"}]}}}, "dtype": {"type": "DT_INT32"}}}, {"name": "StatefulPartitionedCall/model/tf__concat_1/concat/axis", "op": "Const", "attr": {"value": {"tensor": {"dtype": "DT_INT32", "tensorShape": {}}}, "dtype": {"type": "DT_INT32"}}}, {"name": "StatefulPartitionedCall/model/tf__c3_5/concat/axis", "op": "Const", "attr": {"value": {"tensor": {"dtype": "DT_INT32", "tensorShape": {}}}, "dtype": {"type": "DT_INT32"}}}, {"name": "unknown_238", "op": "Const", "attr": {"value": {"tensor": {"dtype": "DT_INT32", "tensorShape": {"dim": [{"size": "4"}, {"size": "2"}]}}}, "dtype": {"type": "DT_INT32"}}}, {"name": "StatefulPartitionedCall/model/tf__upsample/resize/size", "op": "Const", "attr": {"value": {"tensor": {"dtype": "DT_INT32", "tensorShape": {"dim": [{"size": "2"}]}}}, "dtype": {"type": "DT_INT32"}}}, {"name": "StatefulPartitionedCall/model/tf__concat/concat/axis", "op": "Const", "attr": {"value": {"tensor": {"dtype": "DT_INT32", "tensorShape": {}}}, "dtype": {"type": "DT_INT32"}}}, {"name": "StatefulPartitionedCall/model/tf__c3_4/concat/axis", "op": "Const", "attr": {"value": {"tensor": {"dtype": "DT_INT32", "tensorShape": {}}}, "dtype": {"type": "DT_INT32"}}}, {"name": "StatefulPartitionedCall/model/tf__concat_2/concat/axis", "op": "Const", "attr": {"value": {"tensor": {"dtype": "DT_INT32", "tensorShape": {}}}, "dtype": {"type": "DT_INT32"}}}, {"name": "StatefulPartitionedCall/model/tf__c3_6/concat/axis", "op": "Const", "attr": {"value": {"tensor": {"dtype": "DT_INT32", "tensorShape": {}}}, "dtype": {"type": "DT_INT32"}}}, {"name": "unknown_269", "op": "Const", "attr": {"value": {"tensor": {"dtype": "DT_INT32", "tensorShape": {"dim": [{"size": "4"}, {"size": "2"}]}}}, "dtype": {"type": "DT_INT32"}}}, {"name": "StatefulPartitionedCall/model/tf__focus/strided_slice/stack", "op": "Const", "attr": {"dtype": {"type": "DT_INT32"}, "value": {"tensor": {"dtype": "DT_INT32", "tensorShape": {"dim": [{"size": "4"}]}}}}}, {"name": "StatefulPartitionedCall/model/tf__focus/strided_slice/stack_1", "op": "Const", "attr": {"value": {"tensor": {"dtype": "DT_INT32", "tensorShape": {"dim": [{"size": "4"}]}}}, "dtype": {"type": "DT_INT32"}}}, {"name": "StatefulPartitionedCall/model/tf__focus/strided_slice/stack_2", "op": "Const", "attr": {"value": {"tensor": {"dtype": "DT_INT32", "tensorShape": {"dim": [{"size": "4"}]}}}, "dtype": {"type": "DT_INT32"}}}, {"name": "StatefulPartitionedCall/model/tf__focus/strided_slice_1/stack", "op": "Const", "attr": {"value": {"tensor": {"dtype": "DT_INT32", "tensorShape": {"dim": [{"size": "4"}]}}}, "dtype": {"type": "DT_INT32"}}}, {"name": "StatefulPartitionedCall/model/tf__focus/strided_slice_1/stack_1", "op": "Const", "attr": {"value": {"tensor": {"dtype": "DT_INT32", "tensorShape": {"dim": [{"size": "4"}]}}}, "dtype": {"type": "DT_INT32"}}}, {"name": "StatefulPartitionedCall/model/tf__focus/strided_slice_1/stack_2", "op": "Const", "attr": {"dtype": {"type": "DT_INT32"}, "value": {"tensor": {"dtype": "DT_INT32", "tensorShape": {"dim": [{"size": "4"}]}}}}}, {"name": "StatefulPartitionedCall/model/tf__focus/strided_slice_2/stack", "op": "Const", "attr": {"dtype": {"type": "DT_INT32"}, "value": {"tensor": {"dtype": "DT_INT32", "tensorShape": {"dim": [{"size": "4"}]}}}}}, {"name": "StatefulPartitionedCall/model/tf__focus/strided_slice_2/stack_1", "op": "Const", "attr": {"value": {"tensor": {"dtype": "DT_INT32", "tensorShape": {"dim": [{"size": "4"}]}}}, "dtype": {"type": "DT_INT32"}}}, {"name": "StatefulPartitionedCall/model/tf__focus/strided_slice_2/stack_2", "op": "Const", "attr": {"value": {"tensor": {"dtype": "DT_INT32", "tensorShape": {"dim": [{"size": "4"}]}}}, "dtype": {"type": "DT_INT32"}}}, {"name": "StatefulPartitionedCall/model/tf__focus/strided_slice_3/stack", "op": "Const", "attr": {"value": {"tensor": {"dtype": "DT_INT32", "tensorShape": {"dim": [{"size": "4"}]}}}, "dtype": {"type": "DT_INT32"}}}, {"name": "StatefulPartitionedCall/model/tf__focus/strided_slice_3/stack_1", "op": "Const", "attr": {"dtype": {"type": "DT_INT32"}, "value": {"tensor": {"dtype": "DT_INT32", "tensorShape": {"dim": [{"size": "4"}]}}}}}, {"name": "StatefulPartitionedCall/model/tf__focus/strided_slice_3/stack_2", "op": "Const", "attr": {"value": {"tensor": {"dtype": "DT_INT32", "tensorShape": {"dim": [{"size": "4"}]}}}, "dtype": {"type": "DT_INT32"}}}, {"name": "StatefulPartitionedCall/model/tf__focus/concat/axis", "op": "Const", "attr": {"dtype": {"type": "DT_INT32"}, "value": {"tensor": {"dtype": "DT_INT32", "tensorShape": {}}}}}, {"name": "unknown_4", "op": "Const", "attr": {"value": {"tensor": {"dtype": "DT_INT32", "tensorShape": {"dim": [{"size": "4"}, {"size": "2"}]}}}, "dtype": {"type": "DT_INT32"}}}, {"name": "StatefulPartitionedCall/model/tf__c3/concat/axis", "op": "Const", "attr": {"value": {"tensor": {"dtype": "DT_INT32", "tensorShape": {}}}, "dtype": {"type": "DT_INT32"}}}, {"name": "unknown_35", "op": "Const", "attr": {"value": {"tensor": {"dtype": "DT_INT32", "tensorShape": {"dim": [{"size": "4"}, {"size": "2"}]}}}, "dtype": {"type": "DT_INT32"}}}, {"name": "StatefulPartitionedCall/model/tf__c3_1/concat/axis", "op": "Const", "attr": {"value": {"tensor": {"dtype": "DT_INT32", "tensorShape": {}}}, "dtype": {"type": "DT_INT32"}}}, {"name": "unknown_86", "op": "Const", "attr": {"value": {"tensor": {"dtype": "DT_INT32", "tensorShape": {"dim": [{"size": "4"}, {"size": "2"}]}}}, "dtype": {"type": "DT_INT32"}}}, {"name": "StatefulPartitionedCall/model/tf__c3_2/concat/axis", "op": "Const", "attr": {"value": {"tensor": {"dtype": "DT_INT32", "tensorShape": {}}}, "dtype": {"type": "DT_INT32"}}}, {"name": "unknown_137", "op": "Const", "attr": {"value": {"tensor": {"dtype": "DT_INT32", "tensorShape": {"dim": [{"size": "4"}, {"size": "2"}]}}}, "dtype": {"type": "DT_INT32"}}}, {"name": "StatefulPartitionedCall/model/tf_spp/concat/axis", "op": "Const", "attr": {"value": {"tensor": {"dtype": "DT_INT32", "tensorShape": {}}}, "dtype": {"type": "DT_INT32"}}}, {"name": "StatefulPartitionedCall/model/tf__c3_3/concat/axis", "op": "Const", "attr": {"dtype": {"type": "DT_INT32"}, "value": {"tensor": {"dtype": "DT_INT32", "tensorShape": {}}}}}, {"name": "StatefulPartitionedCall/model/tf__concat_3/concat/axis", "op": "Const", "attr": {"value": {"tensor": {"dtype": "DT_INT32", "tensorShape": {}}}, "dtype": {"type": "DT_INT32"}}}, {"name": "StatefulPartitionedCall/model/tf__c3_7/concat/axis", "op": "Const", "attr": {"value": {"tensor": {"dtype": "DT_INT32", "tensorShape": {}}}, "dtype": {"type": "DT_INT32"}}}, {"name": "StatefulPartitionedCall/model/tf__detect/tf__conv2d_2/conv2d_61/Conv2D/ReadVariableOp", "op": "Const", "attr": {"value": {"tensor": {"dtype": "DT_FLOAT", "tensorShape": {"dim": [{"size": "1"}, {"size": "1"}, {"size": "512"}, {"size": "21"}]}}}, "dtype": {"type": "DT_FLOAT"}}}, {"name": "StatefulPartitionedCall/model/tf__detect/tf__conv2d_2/conv2d_61/BiasAdd/ReadVariableOp", "op": "Const", "attr": {"value": {"tensor": {"dtype": "DT_FLOAT", "tensorShape": {"dim": [{"size": "21"}]}}}, "dtype": {"type": "DT_FLOAT"}}}, {"name": "StatefulPartitionedCall/model/tf__detect/Reshape_4/shape_1", "op": "Const", "attr": {"value": {"tensor": {"dtype": "DT_INT32", "tensorShape": {"dim": [{"size": "4"}]}}}, "dtype": {"type": "DT_INT32"}}}, {"name": "StatefulPartitionedCall/model/tf__detect/transpose_2/perm", "op": "Const", "attr": {"value": {"tensor": {"dtype": "DT_INT32", "tensorShape": {"dim": [{"size": "4"}]}}}, "dtype": {"type": "DT_INT32"}}}, {"name": "StatefulPartitionedCall/model/tf__detect/strided_slice_20/stack", "op": "Const", "attr": {"value": {"tensor": {"dtype": "DT_INT32", "tensorShape": {"dim": [{"size": "2"}]}}}, "dtype": {"type": "DT_INT32"}}}, {"name": "StatefulPartitionedCall/model/tf__detect/strided_slice_20/stack_1", "op": "Const", "attr": {"value": {"tensor": {"dtype": "DT_INT32", "tensorShape": {"dim": [{"size": "2"}]}}}, "dtype": {"type": "DT_INT32"}}}, {"name": "StatefulPartitionedCall/model/tf__detect/strided_slice_20/stack_2", "op": "Const", "attr": {"value": {"tensor": {"dtype": "DT_INT32", "tensorShape": {"dim": [{"size": "2"}]}}}, "dtype": {"type": "DT_INT32"}}}, {"name": "StatefulPartitionedCall/model/tf__detect/concat_2/axis", "op": "Const", "attr": {"value": {"tensor": {"dtype": "DT_INT32", "tensorShape": {}}}, "dtype": {"type": "DT_INT32"}}}, {"name": "StatefulPartitionedCall/model/tf__detect/Reshape_5/shape_1", "op": "Const", "attr": {"value": {"tensor": {"dtype": "DT_INT32", "tensorShape": {"dim": [{"size": "3"}]}}}, "dtype": {"type": "DT_INT32"}}}, {"name": "StatefulPartitionedCall/model/tf__detect/concat_3/axis", "op": "Const", "attr": {"value": {"tensor": {"dtype": "DT_INT32", "tensorShape": {}}}, "dtype": {"type": "DT_INT32"}}}, {"name": "input_1", "op": "Placeholder", "attr": {"shape": {"shape": {"dim": [{"size": "1"}, {"size": "640"}, {"size": "640"}, {"size": "3"}]}}, "dtype": {"type": "DT_FLOAT"}}}, {"name": "StatefulPartitionedCall/model/tf__focus/tf__conv/conv2d/Conv2D_weights", "op": "Const", "attr": {"value": {"tensor": {"dtype": "DT_FLOAT", "tensorShape": {"dim": [{"size": "3"}, {"size": "3"}, {"size": "12"}, {"size": "32"}]}}}, "dtype": {"type": "DT_FLOAT"}}}, {"name": "StatefulPartitionedCall/model/tf__focus/tf__conv/conv2d/Conv2D_bn_offset", "op": "Const", "attr": {"value": {"tensor": {"dtype": "DT_FLOAT", "tensorShape": {"dim": [{"size": "32"}]}}}, "dtype": {"type": "DT_FLOAT"}}}, {"name": "StatefulPartitionedCall/model/tf__conv_1/sequential/conv2d_1/Conv2D_weights", "op": "Const", "attr": {"dtype": {"type": "DT_FLOAT"}, "value": {"tensor": {"dtype": "DT_FLOAT", "tensorShape": {"dim": [{"size": "3"}, {"size": "3"}, {"size": "32"}, {"size": "64"}]}}}}}, {"name": "StatefulPartitionedCall/model/tf__conv_1/sequential/conv2d_1/Conv2D_bn_offset", "op": "Const", "attr": {"dtype": {"type": "DT_FLOAT"}, "value": {"tensor": {"dtype": "DT_FLOAT", "tensorShape": {"dim": [{"size": "64"}]}}}}}, {"name": "StatefulPartitionedCall/model/tf__c3/tf__conv_2/conv2d_2/Conv2D_weights", "op": "Const", "attr": {"value": {"tensor": {"dtype": "DT_FLOAT", "tensorShape": {"dim": [{"size": "1"}, {"size": "1"}, {"size": "64"}, {"size": "32"}]}}}, "dtype": {"type": "DT_FLOAT"}}}, {"name": "StatefulPartitionedCall/model/tf__c3/tf__conv_2/conv2d_2/Conv2D_bn_offset", "op": "Const", "attr": {"value": {"tensor": {"dtype": "DT_FLOAT", "tensorShape": {"dim": [{"size": "32"}]}}}, "dtype": {"type": "DT_FLOAT"}}}, {"name": "StatefulPartitionedCall/model/tf__c3/tf__conv_3/conv2d_3/Conv2D_weights", "op": "Const", "attr": {"value": {"tensor": {"dtype": "DT_FLOAT", "tensorShape": {"dim": [{"size": "1"}, {"size": "1"}, {"size": "64"}, {"size": "32"}]}}}, "dtype": {"type": "DT_FLOAT"}}}, {"name": "StatefulPartitionedCall/model/tf__c3/tf__conv_3/conv2d_3/Conv2D_bn_offset", "op": "Const", "attr": {"value": {"tensor": {"dtype": "DT_FLOAT", "tensorShape": {"dim": [{"size": "32"}]}}}, "dtype": {"type": "DT_FLOAT"}}}, {"name": "StatefulPartitionedCall/model/tf__c3/sequential_1/tf__bottleneck/tf__conv_5/conv2d_5/Conv2D_weights", "op": "Const", "attr": {"value": {"tensor": {"dtype": "DT_FLOAT", "tensorShape": {"dim": [{"size": "1"}, {"size": "1"}, {"size": "32"}, {"size": "32"}]}}}, "dtype": {"type": "DT_FLOAT"}}}, {"name": "StatefulPartitionedCall/model/tf__c3/sequential_1/tf__bottleneck/tf__conv_5/conv2d_5/Conv2D_bn_offset", "op": "Const", "attr": {"value": {"tensor": {"dtype": "DT_FLOAT", "tensorShape": {"dim": [{"size": "32"}]}}}, "dtype": {"type": "DT_FLOAT"}}}, {"name": "StatefulPartitionedCall/model/tf__c3/sequential_1/tf__bottleneck/tf__conv_6/conv2d_6/Conv2D_weights", "op": "Const", "attr": {"value": {"tensor": {"dtype": "DT_FLOAT", "tensorShape": {"dim": [{"size": "3"}, {"size": "3"}, {"size": "32"}, {"size": "32"}]}}}, "dtype": {"type": "DT_FLOAT"}}}, {"name": "StatefulPartitionedCall/model/tf__c3/sequential_1/tf__bottleneck/tf__conv_6/conv2d_6/Conv2D_bn_offset", "op": "Const", "attr": {"value": {"tensor": {"dtype": "DT_FLOAT", "tensorShape": {"dim": [{"size": "32"}]}}}, "dtype": {"type": "DT_FLOAT"}}}, {"name": "StatefulPartitionedCall/model/tf__c3/tf__conv_4/conv2d_4/Conv2D_weights", "op": "Const", "attr": {"value": {"tensor": {"dtype": "DT_FLOAT", "tensorShape": {"dim": [{"size": "1"}, {"size": "1"}, {"size": "64"}, {"size": "64"}]}}}, "dtype": {"type": "DT_FLOAT"}}}, {"name": "StatefulPartitionedCall/model/tf__conv_53/sequential_12/conv2d_53/Conv2D_weights", "op": "Const", "attr": {"value": {"tensor": {"dtype": "DT_FLOAT", "tensorShape": {"dim": [{"size": "3"}, {"size": "3"}, {"size": "256"}, {"size": "256"}]}}}, "dtype": {"type": "DT_FLOAT"}}}, {"name": "StatefulPartitionedCall/model/tf__c3/tf__conv_4/conv2d_4/Conv2D_bn_offset", "op": "Const", "attr": {"value": {"tensor": {"dtype": "DT_FLOAT", "tensorShape": {"dim": [{"size": "64"}]}}}, "dtype": {"type": "DT_FLOAT"}}}, {"name": "StatefulPartitionedCall/model/tf__conv_7/sequential_2/conv2d_7/Conv2D_weights", "op": "Const", "attr": {"value": {"tensor": {"dtype": "DT_FLOAT", "tensorShape": {"dim": [{"size": "3"}, {"size": "3"}, {"size": "64"}, {"size": "128"}]}}}, "dtype": {"type": "DT_FLOAT"}}}, {"name": "StatefulPartitionedCall/model/tf__conv_7/sequential_2/conv2d_7/Conv2D_bn_offset", "op": "Const", "attr": {"value": {"tensor": {"dtype": "DT_FLOAT", "tensorShape": {"dim": [{"size": "128"}]}}}, "dtype": {"type": "DT_FLOAT"}}}, {"name": "StatefulPartitionedCall/model/tf__c3_1/tf__conv_8/conv2d_8/Conv2D_weights", "op": "Const", "attr": {"value": {"tensor": {"dtype": "DT_FLOAT", "tensorShape": {"dim": [{"size": "1"}, {"size": "1"}, {"size": "128"}, {"size": "64"}]}}}, "dtype": {"type": "DT_FLOAT"}}}, {"name": "StatefulPartitionedCall/model/tf__conv_53/sequential_12/conv2d_53/Conv2D_bn_offset", "op": "Const", "attr": {"value": {"tensor": {"dtype": "DT_FLOAT", "tensorShape": {"dim": [{"size": "256"}]}}}, "dtype": {"type": "DT_FLOAT"}}}, {"name": "StatefulPartitionedCall/model/tf__c3_1/tf__conv_8/conv2d_8/Conv2D_bn_offset", "op": "Const", "attr": {"value": {"tensor": {"dtype": "DT_FLOAT", "tensorShape": {"dim": [{"size": "64"}]}}}, "dtype": {"type": "DT_FLOAT"}}}, {"name": "StatefulPartitionedCall/model/tf__c3_1/tf__conv_9/conv2d_9/Conv2D_weights", "op": "Const", "attr": {"value": {"tensor": {"dtype": "DT_FLOAT", "tensorShape": {"dim": [{"size": "1"}, {"size": "1"}, {"size": "128"}, {"size": "64"}]}}}, "dtype": {"type": "DT_FLOAT"}}}, {"name": "StatefulPartitionedCall/model/tf__c3_1/tf__conv_9/conv2d_9/Conv2D_bn_offset", "op": "Const", "attr": {"value": {"tensor": {"dtype": "DT_FLOAT", "tensorShape": {"dim": [{"size": "64"}]}}}, "dtype": {"type": "DT_FLOAT"}}}, {"name": "StatefulPartitionedCall/model/tf__c3_1/sequential_3/tf__bottleneck_1/tf__conv_11/conv2d_11/Conv2D_weights", "op": "Const", "attr": {"value": {"tensor": {"dtype": "DT_FLOAT", "tensorShape": {"dim": [{"size": "1"}, {"size": "1"}, {"size": "64"}, {"size": "64"}]}}}, "dtype": {"type": "DT_FLOAT"}}}, {"name": "StatefulPartitionedCall/model/tf__c3_1/sequential_3/tf__bottleneck_1/tf__conv_11/conv2d_11/Conv2D_bn_offset", "op": "Const", "attr": {"value": {"tensor": {"dtype": "DT_FLOAT", "tensorShape": {"dim": [{"size": "64"}]}}}, "dtype": {"type": "DT_FLOAT"}}}, {"name": "StatefulPartitionedCall/model/tf__c3_1/sequential_3/tf__bottleneck_1/tf__conv_12/conv2d_12/Conv2D_weights", "op": "Const", "attr": {"value": {"tensor": {"dtype": "DT_FLOAT", "tensorShape": {"dim": [{"size": "3"}, {"size": "3"}, {"size": "64"}, {"size": "64"}]}}}, "dtype": {"type": "DT_FLOAT"}}}, {"name": "StatefulPartitionedCall/model/tf__c3_1/sequential_3/tf__bottleneck_1/tf__conv_12/conv2d_12/Conv2D_bn_offset", "op": "Const", "attr": {"dtype": {"type": "DT_FLOAT"}, "value": {"tensor": {"dtype": "DT_FLOAT", "tensorShape": {"dim": [{"size": "64"}]}}}}}, {"name": "StatefulPartitionedCall/model/tf__c3_1/sequential_3/tf__bottleneck_2/tf__conv_13/conv2d_13/Conv2D_weights", "op": "Const", "attr": {"value": {"tensor": {"dtype": "DT_FLOAT", "tensorShape": {"dim": [{"size": "1"}, {"size": "1"}, {"size": "64"}, {"size": "64"}]}}}, "dtype": {"type": "DT_FLOAT"}}}, {"name": "StatefulPartitionedCall/model/tf__c3_1/sequential_3/tf__bottleneck_2/tf__conv_13/conv2d_13/Conv2D_bn_offset", "op": "Const", "attr": {"dtype": {"type": "DT_FLOAT"}, "value": {"tensor": {"dtype": "DT_FLOAT", "tensorShape": {"dim": [{"size": "64"}]}}}}}, {"name": "StatefulPartitionedCall/model/tf__c3_1/sequential_3/tf__bottleneck_2/tf__conv_14/conv2d_14/Conv2D_weights", "op": "Const", "attr": {"value": {"tensor": {"dtype": "DT_FLOAT", "tensorShape": {"dim": [{"size": "3"}, {"size": "3"}, {"size": "64"}, {"size": "64"}]}}}, "dtype": {"type": "DT_FLOAT"}}}, {"name": "StatefulPartitionedCall/model/tf__c3_7/tf__conv_54/conv2d_54/Conv2D_weights", "op": "Const", "attr": {"value": {"tensor": {"dtype": "DT_FLOAT", "tensorShape": {"dim": [{"size": "1"}, {"size": "1"}, {"size": "512"}, {"size": "256"}]}}}, "dtype": {"type": "DT_FLOAT"}}}, {"name": "StatefulPartitionedCall/model/tf__c3_1/sequential_3/tf__bottleneck_2/tf__conv_14/conv2d_14/Conv2D_bn_offset", "op": "Const", "attr": {"value": {"tensor": {"dtype": "DT_FLOAT", "tensorShape": {"dim": [{"size": "64"}]}}}, "dtype": {"type": "DT_FLOAT"}}}, {"name": "StatefulPartitionedCall/model/tf__c3_1/sequential_3/tf__bottleneck_3/tf__conv_15/conv2d_15/Conv2D_weights", "op": "Const", "attr": {"dtype": {"type": "DT_FLOAT"}, "value": {"tensor": {"dtype": "DT_FLOAT", "tensorShape": {"dim": [{"size": "1"}, {"size": "1"}, {"size": "64"}, {"size": "64"}]}}}}}, {"name": "StatefulPartitionedCall/model/tf__c3_1/sequential_3/tf__bottleneck_3/tf__conv_15/conv2d_15/Conv2D_bn_offset", "op": "Const", "attr": {"value": {"tensor": {"dtype": "DT_FLOAT", "tensorShape": {"dim": [{"size": "64"}]}}}, "dtype": {"type": "DT_FLOAT"}}}, {"name": "StatefulPartitionedCall/model/tf__c3_1/sequential_3/tf__bottleneck_3/tf__conv_16/conv2d_16/Conv2D_weights", "op": "Const", "attr": {"dtype": {"type": "DT_FLOAT"}, "value": {"tensor": {"dtype": "DT_FLOAT", "tensorShape": {"dim": [{"size": "3"}, {"size": "3"}, {"size": "64"}, {"size": "64"}]}}}}}, {"name": "StatefulPartitionedCall/model/tf__c3_7/tf__conv_54/conv2d_54/Conv2D_bn_offset", "op": "Const", "attr": {"value": {"tensor": {"dtype": "DT_FLOAT", "tensorShape": {"dim": [{"size": "256"}]}}}, "dtype": {"type": "DT_FLOAT"}}}, {"name": "StatefulPartitionedCall/model/tf__c3_1/sequential_3/tf__bottleneck_3/tf__conv_16/conv2d_16/Conv2D_bn_offset", "op": "Const", "attr": {"value": {"tensor": {"dtype": "DT_FLOAT", "tensorShape": {"dim": [{"size": "64"}]}}}, "dtype": {"type": "DT_FLOAT"}}}, {"name": "StatefulPartitionedCall/model/tf__c3_1/tf__conv_10/conv2d_10/Conv2D_weights", "op": "Const", "attr": {"value": {"tensor": {"dtype": "DT_FLOAT", "tensorShape": {"dim": [{"size": "1"}, {"size": "1"}, {"size": "128"}, {"size": "128"}]}}}, "dtype": {"type": "DT_FLOAT"}}}, {"name": "StatefulPartitionedCall/model/tf__c3_1/tf__conv_10/conv2d_10/Conv2D_bn_offset", "op": "Const", "attr": {"value": {"tensor": {"dtype": "DT_FLOAT", "tensorShape": {"dim": [{"size": "128"}]}}}, "dtype": {"type": "DT_FLOAT"}}}, {"name": "StatefulPartitionedCall/model/tf__conv_17/sequential_4/conv2d_17/Conv2D_weights", "op": "Const", "attr": {"dtype": {"type": "DT_FLOAT"}, "value": {"tensor": {"dtype": "DT_FLOAT", "tensorShape": {"dim": [{"size": "3"}, {"size": "3"}, {"size": "128"}, {"size": "256"}]}}}}}, {"name": "StatefulPartitionedCall/model/tf__conv_17/sequential_4/conv2d_17/Conv2D_bn_offset", "op": "Const", "attr": {"value": {"tensor": {"dtype": "DT_FLOAT", "tensorShape": {"dim": [{"size": "256"}]}}}, "dtype": {"type": "DT_FLOAT"}}}, {"name": "StatefulPartitionedCall/model/tf__c3_2/tf__conv_18/conv2d_18/Conv2D_weights", "op": "Const", "attr": {"value": {"tensor": {"dtype": "DT_FLOAT", "tensorShape": {"dim": [{"size": "1"}, {"size": "1"}, {"size": "256"}, {"size": "128"}]}}}, "dtype": {"type": "DT_FLOAT"}}}, {"name": "StatefulPartitionedCall/model/tf__c3_2/tf__conv_18/conv2d_18/Conv2D_bn_offset", "op": "Const", "attr": {"value": {"tensor": {"dtype": "DT_FLOAT", "tensorShape": {"dim": [{"size": "128"}]}}}, "dtype": {"type": "DT_FLOAT"}}}, {"name": "StatefulPartitionedCall/model/tf__c3_2/tf__conv_19/conv2d_19/Conv2D_weights", "op": "Const", "attr": {"value": {"tensor": {"dtype": "DT_FLOAT", "tensorShape": {"dim": [{"size": "1"}, {"size": "1"}, {"size": "256"}, {"size": "128"}]}}}, "dtype": {"type": "DT_FLOAT"}}}, {"name": "StatefulPartitionedCall/model/tf__c3_7/tf__conv_55/conv2d_55/Conv2D_weights", "op": "Const", "attr": {"dtype": {"type": "DT_FLOAT"}, "value": {"tensor": {"dtype": "DT_FLOAT", "tensorShape": {"dim": [{"size": "1"}, {"size": "1"}, {"size": "512"}, {"size": "256"}]}}}}}, {"name": "StatefulPartitionedCall/model/tf__c3_2/tf__conv_19/conv2d_19/Conv2D_bn_offset", "op": "Const", "attr": {"value": {"tensor": {"dtype": "DT_FLOAT", "tensorShape": {"dim": [{"size": "128"}]}}}, "dtype": {"type": "DT_FLOAT"}}}, {"name": "StatefulPartitionedCall/model/tf__c3_2/sequential_5/tf__bottleneck_4/tf__conv_21/conv2d_21/Conv2D_weights", "op": "Const", "attr": {"value": {"tensor": {"dtype": "DT_FLOAT", "tensorShape": {"dim": [{"size": "1"}, {"size": "1"}, {"size": "128"}, {"size": "128"}]}}}, "dtype": {"type": "DT_FLOAT"}}}, {"name": "StatefulPartitionedCall/model/tf__c3_2/sequential_5/tf__bottleneck_4/tf__conv_21/conv2d_21/Conv2D_bn_offset", "op": "Const", "attr": {"value": {"tensor": {"dtype": "DT_FLOAT", "tensorShape": {"dim": [{"size": "128"}]}}}, "dtype": {"type": "DT_FLOAT"}}}, {"name": "StatefulPartitionedCall/model/tf__c3_2/sequential_5/tf__bottleneck_4/tf__conv_22/conv2d_22/Conv2D_weights", "op": "Const", "attr": {"dtype": {"type": "DT_FLOAT"}, "value": {"tensor": {"dtype": "DT_FLOAT", "tensorShape": {"dim": [{"size": "3"}, {"size": "3"}, {"size": "128"}, {"size": "128"}]}}}}}, {"name": "StatefulPartitionedCall/model/tf__c3_7/tf__conv_55/conv2d_55/Conv2D_bn_offset", "op": "Const", "attr": {"value": {"tensor": {"dtype": "DT_FLOAT", "tensorShape": {"dim": [{"size": "256"}]}}}, "dtype": {"type": "DT_FLOAT"}}}, {"name": "StatefulPartitionedCall/model/tf__c3_2/sequential_5/tf__bottleneck_4/tf__conv_22/conv2d_22/Conv2D_bn_offset", "op": "Const", "attr": {"dtype": {"type": "DT_FLOAT"}, "value": {"tensor": {"dtype": "DT_FLOAT", "tensorShape": {"dim": [{"size": "128"}]}}}}}, {"name": "StatefulPartitionedCall/model/tf__c3_2/sequential_5/tf__bottleneck_5/tf__conv_23/conv2d_23/Conv2D_weights", "op": "Const", "attr": {"value": {"tensor": {"dtype": "DT_FLOAT", "tensorShape": {"dim": [{"size": "1"}, {"size": "1"}, {"size": "128"}, {"size": "128"}]}}}, "dtype": {"type": "DT_FLOAT"}}}, {"name": "StatefulPartitionedCall/model/tf__c3_2/sequential_5/tf__bottleneck_5/tf__conv_23/conv2d_23/Conv2D_bn_offset", "op": "Const", "attr": {"dtype": {"type": "DT_FLOAT"}, "value": {"tensor": {"dtype": "DT_FLOAT", "tensorShape": {"dim": [{"size": "128"}]}}}}}, {"name": "StatefulPartitionedCall/model/tf__c3_2/sequential_5/tf__bottleneck_5/tf__conv_24/conv2d_24/Conv2D_weights", "op": "Const", "attr": {"dtype": {"type": "DT_FLOAT"}, "value": {"tensor": {"dtype": "DT_FLOAT", "tensorShape": {"dim": [{"size": "3"}, {"size": "3"}, {"size": "128"}, {"size": "128"}]}}}}}, {"name": "StatefulPartitionedCall/model/tf__c3_2/sequential_5/tf__bottleneck_5/tf__conv_24/conv2d_24/Conv2D_bn_offset", "op": "Const", "attr": {"value": {"tensor": {"dtype": "DT_FLOAT", "tensorShape": {"dim": [{"size": "128"}]}}}, "dtype": {"type": "DT_FLOAT"}}}, {"name": "StatefulPartitionedCall/model/tf__c3_2/sequential_5/tf__bottleneck_6/tf__conv_25/conv2d_25/Conv2D_weights", "op": "Const", "attr": {"dtype": {"type": "DT_FLOAT"}, "value": {"tensor": {"dtype": "DT_FLOAT", "tensorShape": {"dim": [{"size": "1"}, {"size": "1"}, {"size": "128"}, {"size": "128"}]}}}}}, {"name": "StatefulPartitionedCall/model/tf__c3_2/sequential_5/tf__bottleneck_6/tf__conv_25/conv2d_25/Conv2D_bn_offset", "op": "Const", "attr": {"value": {"tensor": {"dtype": "DT_FLOAT", "tensorShape": {"dim": [{"size": "128"}]}}}, "dtype": {"type": "DT_FLOAT"}}}, {"name": "StatefulPartitionedCall/model/tf__c3_2/sequential_5/tf__bottleneck_6/tf__conv_26/conv2d_26/Conv2D_weights", "op": "Const", "attr": {"dtype": {"type": "DT_FLOAT"}, "value": {"tensor": {"dtype": "DT_FLOAT", "tensorShape": {"dim": [{"size": "3"}, {"size": "3"}, {"size": "128"}, {"size": "128"}]}}}}}, {"name": "StatefulPartitionedCall/model/tf__c3_7/sequential_13/tf__bottleneck_11/tf__conv_57/conv2d_57/Conv2D_weights", "op": "Const", "attr": {"dtype": {"type": "DT_FLOAT"}, "value": {"tensor": {"dtype": "DT_FLOAT", "tensorShape": {"dim": [{"size": "1"}, {"size": "1"}, {"size": "256"}, {"size": "256"}]}}}}}, {"name": "StatefulPartitionedCall/model/tf__c3_2/sequential_5/tf__bottleneck_6/tf__conv_26/conv2d_26/Conv2D_bn_offset", "op": "Const", "attr": {"dtype": {"type": "DT_FLOAT"}, "value": {"tensor": {"dtype": "DT_FLOAT", "tensorShape": {"dim": [{"size": "128"}]}}}}}, {"name": "StatefulPartitionedCall/model/tf__c3_2/tf__conv_20/conv2d_20/Conv2D_weights", "op": "Const", "attr": {"value": {"tensor": {"dtype": "DT_FLOAT", "tensorShape": {"dim": [{"size": "1"}, {"size": "1"}, {"size": "256"}, {"size": "256"}]}}}, "dtype": {"type": "DT_FLOAT"}}}, {"name": "StatefulPartitionedCall/model/tf__c3_2/tf__conv_20/conv2d_20/Conv2D_bn_offset", "op": "Const", "attr": {"value": {"tensor": {"dtype": "DT_FLOAT", "tensorShape": {"dim": [{"size": "256"}]}}}, "dtype": {"type": "DT_FLOAT"}}}, {"name": "StatefulPartitionedCall/model/tf__conv_27/sequential_6/conv2d_27/Conv2D_weights", "op": "Const", "attr": {"value": {"tensor": {"dtype": "DT_FLOAT", "tensorShape": {"dim": [{"size": "3"}, {"size": "3"}, {"size": "256"}, {"size": "512"}]}}}, "dtype": {"type": "DT_FLOAT"}}}, {"name": "StatefulPartitionedCall/model/tf__c3_7/sequential_13/tf__bottleneck_11/tf__conv_57/conv2d_57/Conv2D_bn_offset", "op": "Const", "attr": {"dtype": {"type": "DT_FLOAT"}, "value": {"tensor": {"dtype": "DT_FLOAT", "tensorShape": {"dim": [{"size": "256"}]}}}}}, {"name": "StatefulPartitionedCall/model/tf__conv_27/sequential_6/conv2d_27/Conv2D_bn_offset", "op": "Const", "attr": {"value": {"tensor": {"dtype": "DT_FLOAT", "tensorShape": {"dim": [{"size": "512"}]}}}, "dtype": {"type": "DT_FLOAT"}}}, {"name": "StatefulPartitionedCall/model/tf_spp/tf__conv_28/conv2d_28/Conv2D_weights", "op": "Const", "attr": {"value": {"tensor": {"dtype": "DT_FLOAT", "tensorShape": {"dim": [{"size": "1"}, {"size": "1"}, {"size": "512"}, {"size": "256"}]}}}, "dtype": {"type": "DT_FLOAT"}}}, {"name": "StatefulPartitionedCall/model/tf_spp/tf__conv_28/conv2d_28/Conv2D_bn_offset", "op": "Const", "attr": {"value": {"tensor": {"dtype": "DT_FLOAT", "tensorShape": {"dim": [{"size": "256"}]}}}, "dtype": {"type": "DT_FLOAT"}}}, {"name": "StatefulPartitionedCall/model/tf_spp/tf__conv_29/conv2d_29/Conv2D_weights", "op": "Const", "attr": {"value": {"tensor": {"dtype": "DT_FLOAT", "tensorShape": {"dim": [{"size": "1"}, {"size": "1"}, {"size": "1024"}, {"size": "512"}]}}}, "dtype": {"type": "DT_FLOAT"}}}, {"name": "StatefulPartitionedCall/model/tf_spp/tf__conv_29/conv2d_29/Conv2D_bn_offset", "op": "Const", "attr": {"value": {"tensor": {"dtype": "DT_FLOAT", "tensorShape": {"dim": [{"size": "512"}]}}}, "dtype": {"type": "DT_FLOAT"}}}, {"name": "StatefulPartitionedCall/model/tf__c3_3/tf__conv_30/conv2d_30/Conv2D_weights", "op": "Const", "attr": {"dtype": {"type": "DT_FLOAT"}, "value": {"tensor": {"dtype": "DT_FLOAT", "tensorShape": {"dim": [{"size": "1"}, {"size": "1"}, {"size": "512"}, {"size": "256"}]}}}}}, {"name": "StatefulPartitionedCall/model/tf__c3_3/tf__conv_30/conv2d_30/Conv2D_bn_offset", "op": "Const", "attr": {"value": {"tensor": {"dtype": "DT_FLOAT", "tensorShape": {"dim": [{"size": "256"}]}}}, "dtype": {"type": "DT_FLOAT"}}}, {"name": "StatefulPartitionedCall/model/tf__c3_3/tf__conv_31/conv2d_31/Conv2D_weights", "op": "Const", "attr": {"value": {"tensor": {"dtype": "DT_FLOAT", "tensorShape": {"dim": [{"size": "1"}, {"size": "1"}, {"size": "512"}, {"size": "256"}]}}}, "dtype": {"type": "DT_FLOAT"}}}, {"name": "StatefulPartitionedCall/model/tf__c3_7/sequential_13/tf__bottleneck_11/tf__conv_58/conv2d_58/Conv2D_weights", "op": "Const", "attr": {"value": {"tensor": {"dtype": "DT_FLOAT", "tensorShape": {"dim": [{"size": "3"}, {"size": "3"}, {"size": "256"}, {"size": "256"}]}}}, "dtype": {"type": "DT_FLOAT"}}}, {"name": "StatefulPartitionedCall/model/tf__c3_3/tf__conv_31/conv2d_31/Conv2D_bn_offset", "op": "Const", "attr": {"value": {"tensor": {"dtype": "DT_FLOAT", "tensorShape": {"dim": [{"size": "256"}]}}}, "dtype": {"type": "DT_FLOAT"}}}, {"name": "StatefulPartitionedCall/model/tf__c3_3/sequential_7/tf__bottleneck_7/tf__conv_33/conv2d_33/Conv2D_weights", "op": "Const", "attr": {"value": {"tensor": {"dtype": "DT_FLOAT", "tensorShape": {"dim": [{"size": "1"}, {"size": "1"}, {"size": "256"}, {"size": "256"}]}}}, "dtype": {"type": "DT_FLOAT"}}}, {"name": "StatefulPartitionedCall/model/tf__c3_3/sequential_7/tf__bottleneck_7/tf__conv_33/conv2d_33/Conv2D_bn_offset", "op": "Const", "attr": {"value": {"tensor": {"dtype": "DT_FLOAT", "tensorShape": {"dim": [{"size": "256"}]}}}, "dtype": {"type": "DT_FLOAT"}}}, {"name": "StatefulPartitionedCall/model/tf__c3_3/sequential_7/tf__bottleneck_7/tf__conv_34/conv2d_34/Conv2D_weights", "op": "Const", "attr": {"value": {"tensor": {"dtype": "DT_FLOAT", "tensorShape": {"dim": [{"size": "3"}, {"size": "3"}, {"size": "256"}, {"size": "256"}]}}}, "dtype": {"type": "DT_FLOAT"}}}, {"name": "StatefulPartitionedCall/model/tf__c3_7/sequential_13/tf__bottleneck_11/tf__conv_58/conv2d_58/Conv2D_bn_offset", "op": "Const", "attr": {"value": {"tensor": {"dtype": "DT_FLOAT", "tensorShape": {"dim": [{"size": "256"}]}}}, "dtype": {"type": "DT_FLOAT"}}}, {"name": "StatefulPartitionedCall/model/tf__c3_3/sequential_7/tf__bottleneck_7/tf__conv_34/conv2d_34/Conv2D_bn_offset", "op": "Const", "attr": {"value": {"tensor": {"dtype": "DT_FLOAT", "tensorShape": {"dim": [{"size": "256"}]}}}, "dtype": {"type": "DT_FLOAT"}}}, {"name": "StatefulPartitionedCall/model/tf__c3_3/tf__conv_32/conv2d_32/Conv2D_weights", "op": "Const", "attr": {"value": {"tensor": {"dtype": "DT_FLOAT", "tensorShape": {"dim": [{"size": "1"}, {"size": "1"}, {"size": "512"}, {"size": "512"}]}}}, "dtype": {"type": "DT_FLOAT"}}}, {"name": "StatefulPartitionedCall/model/tf__c3_3/tf__conv_32/conv2d_32/Conv2D_bn_offset", "op": "Const", "attr": {"value": {"tensor": {"dtype": "DT_FLOAT", "tensorShape": {"dim": [{"size": "512"}]}}}, "dtype": {"type": "DT_FLOAT"}}}, {"name": "StatefulPartitionedCall/model/tf__conv_35/conv2d_35/Conv2D_weights", "op": "Const", "attr": {"value": {"tensor": {"dtype": "DT_FLOAT", "tensorShape": {"dim": [{"size": "1"}, {"size": "1"}, {"size": "512"}, {"size": "256"}]}}}, "dtype": {"type": "DT_FLOAT"}}}, {"name": "StatefulPartitionedCall/model/tf__conv_35/conv2d_35/Conv2D_bn_offset", "op": "Const", "attr": {"value": {"tensor": {"dtype": "DT_FLOAT", "tensorShape": {"dim": [{"size": "256"}]}}}, "dtype": {"type": "DT_FLOAT"}}}, {"name": "StatefulPartitionedCall/model/tf__c3_4/tf__conv_36/conv2d_36/Conv2D_weights", "op": "Const", "attr": {"value": {"tensor": {"dtype": "DT_FLOAT", "tensorShape": {"dim": [{"size": "1"}, {"size": "1"}, {"size": "512"}, {"size": "128"}]}}}, "dtype": {"type": "DT_FLOAT"}}}, {"name": "StatefulPartitionedCall/model/tf__c3_4/tf__conv_36/conv2d_36/Conv2D_bn_offset", "op": "Const", "attr": {"value": {"tensor": {"dtype": "DT_FLOAT", "tensorShape": {"dim": [{"size": "128"}]}}}, "dtype": {"type": "DT_FLOAT"}}}, {"name": "StatefulPartitionedCall/model/tf__c3_4/tf__conv_37/conv2d_37/Conv2D_weights", "op": "Const", "attr": {"value": {"tensor": {"dtype": "DT_FLOAT", "tensorShape": {"dim": [{"size": "1"}, {"size": "1"}, {"size": "512"}, {"size": "128"}]}}}, "dtype": {"type": "DT_FLOAT"}}}, {"name": "StatefulPartitionedCall/model/tf__c3_4/tf__conv_37/conv2d_37/Conv2D_bn_offset", "op": "Const", "attr": {"value": {"tensor": {"dtype": "DT_FLOAT", "tensorShape": {"dim": [{"size": "128"}]}}}, "dtype": {"type": "DT_FLOAT"}}}, {"name": "StatefulPartitionedCall/model/tf__c3_4/sequential_8/tf__bottleneck_8/tf__conv_39/conv2d_39/Conv2D_weights", "op": "Const", "attr": {"value": {"tensor": {"dtype": "DT_FLOAT", "tensorShape": {"dim": [{"size": "1"}, {"size": "1"}, {"size": "128"}, {"size": "128"}]}}}, "dtype": {"type": "DT_FLOAT"}}}, {"name": "StatefulPartitionedCall/model/tf__c3_7/tf__conv_56/conv2d_56/Conv2D_weights", "op": "Const", "attr": {"value": {"tensor": {"dtype": "DT_FLOAT", "tensorShape": {"dim": [{"size": "1"}, {"size": "1"}, {"size": "512"}, {"size": "512"}]}}}, "dtype": {"type": "DT_FLOAT"}}}, {"name": "StatefulPartitionedCall/model/tf__c3_4/sequential_8/tf__bottleneck_8/tf__conv_39/conv2d_39/Conv2D_bn_offset", "op": "Const", "attr": {"value": {"tensor": {"dtype": "DT_FLOAT", "tensorShape": {"dim": [{"size": "128"}]}}}, "dtype": {"type": "DT_FLOAT"}}}, {"name": "StatefulPartitionedCall/model/tf__c3_4/sequential_8/tf__bottleneck_8/tf__conv_40/conv2d_40/Conv2D_weights", "op": "Const", "attr": {"value": {"tensor": {"dtype": "DT_FLOAT", "tensorShape": {"dim": [{"size": "3"}, {"size": "3"}, {"size": "128"}, {"size": "128"}]}}}, "dtype": {"type": "DT_FLOAT"}}}, {"name": "StatefulPartitionedCall/model/tf__c3_4/sequential_8/tf__bottleneck_8/tf__conv_40/conv2d_40/Conv2D_bn_offset", "op": "Const", "attr": {"value": {"tensor": {"dtype": "DT_FLOAT", "tensorShape": {"dim": [{"size": "128"}]}}}, "dtype": {"type": "DT_FLOAT"}}}, {"name": "StatefulPartitionedCall/model/tf__c3_4/tf__conv_38/conv2d_38/Conv2D_weights", "op": "Const", "attr": {"value": {"tensor": {"dtype": "DT_FLOAT", "tensorShape": {"dim": [{"size": "1"}, {"size": "1"}, {"size": "256"}, {"size": "256"}]}}}, "dtype": {"type": "DT_FLOAT"}}}, {"name": "StatefulPartitionedCall/model/tf__c3_7/tf__conv_56/conv2d_56/Conv2D_bn_offset", "op": "Const", "attr": {"dtype": {"type": "DT_FLOAT"}, "value": {"tensor": {"dtype": "DT_FLOAT", "tensorShape": {"dim": [{"size": "512"}]}}}}}, {"name": "StatefulPartitionedCall/model/tf__c3_4/tf__conv_38/conv2d_38/Conv2D_bn_offset", "op": "Const", "attr": {"dtype": {"type": "DT_FLOAT"}, "value": {"tensor": {"dtype": "DT_FLOAT", "tensorShape": {"dim": [{"size": "256"}]}}}}}, {"name": "StatefulPartitionedCall/model/tf__conv_41/conv2d_41/Conv2D_weights", "op": "Const", "attr": {"value": {"tensor": {"dtype": "DT_FLOAT", "tensorShape": {"dim": [{"size": "1"}, {"size": "1"}, {"size": "256"}, {"size": "128"}]}}}, "dtype": {"type": "DT_FLOAT"}}}, {"name": "StatefulPartitionedCall/model/tf__conv_41/conv2d_41/Conv2D_bn_offset", "op": "Const", "attr": {"dtype": {"type": "DT_FLOAT"}, "value": {"tensor": {"dtype": "DT_FLOAT", "tensorShape": {"dim": [{"size": "128"}]}}}}}, {"name": "StatefulPartitionedCall/model/tf__c3_5/tf__conv_42/conv2d_42/Conv2D_weights", "op": "Const", "attr": {"value": {"tensor": {"dtype": "DT_FLOAT", "tensorShape": {"dim": [{"size": "1"}, {"size": "1"}, {"size": "256"}, {"size": "64"}]}}}, "dtype": {"type": "DT_FLOAT"}}}, {"name": "StatefulPartitionedCall/model/tf__c3_5/tf__conv_42/conv2d_42/Conv2D_bn_offset", "op": "Const", "attr": {"dtype": {"type": "DT_FLOAT"}, "value": {"tensor": {"dtype": "DT_FLOAT", "tensorShape": {"dim": [{"size": "64"}]}}}}}, {"name": "StatefulPartitionedCall/model/tf__c3_5/tf__conv_43/conv2d_43/Conv2D_weights", "op": "Const", "attr": {"value": {"tensor": {"dtype": "DT_FLOAT", "tensorShape": {"dim": [{"size": "1"}, {"size": "1"}, {"size": "256"}, {"size": "64"}]}}}, "dtype": {"type": "DT_FLOAT"}}}, {"name": "StatefulPartitionedCall/model/tf__c3_5/tf__conv_43/conv2d_43/Conv2D_bn_offset", "op": "Const", "attr": {"value": {"tensor": {"dtype": "DT_FLOAT", "tensorShape": {"dim": [{"size": "64"}]}}}, "dtype": {"type": "DT_FLOAT"}}}, {"name": "StatefulPartitionedCall/model/tf__c3_5/sequential_9/tf__bottleneck_9/tf__conv_45/conv2d_45/Conv2D_weights", "op": "Const", "attr": {"value": {"tensor": {"dtype": "DT_FLOAT", "tensorShape": {"dim": [{"size": "1"}, {"size": "1"}, {"size": "64"}, {"size": "64"}]}}}, "dtype": {"type": "DT_FLOAT"}}}, {"name": "StatefulPartitionedCall/model/tf__c3_5/sequential_9/tf__bottleneck_9/tf__conv_45/conv2d_45/Conv2D_bn_offset", "op": "Const", "attr": {"value": {"tensor": {"dtype": "DT_FLOAT", "tensorShape": {"dim": [{"size": "64"}]}}}, "dtype": {"type": "DT_FLOAT"}}}, {"name": "StatefulPartitionedCall/model/tf__c3_5/sequential_9/tf__bottleneck_9/tf__conv_46/conv2d_46/Conv2D_weights", "op": "Const", "attr": {"value": {"tensor": {"dtype": "DT_FLOAT", "tensorShape": {"dim": [{"size": "3"}, {"size": "3"}, {"size": "64"}, {"size": "64"}]}}}, "dtype": {"type": "DT_FLOAT"}}}, {"name": "StatefulPartitionedCall/model/tf__c3_5/sequential_9/tf__bottleneck_9/tf__conv_46/conv2d_46/Conv2D_bn_offset", "op": "Const", "attr": {"value": {"tensor": {"dtype": "DT_FLOAT", "tensorShape": {"dim": [{"size": "64"}]}}}, "dtype": {"type": "DT_FLOAT"}}}, {"name": "StatefulPartitionedCall/model/tf__c3_5/tf__conv_44/conv2d_44/Conv2D_weights", "op": "Const", "attr": {"value": {"tensor": {"dtype": "DT_FLOAT", "tensorShape": {"dim": [{"size": "1"}, {"size": "1"}, {"size": "128"}, {"size": "128"}]}}}, "dtype": {"type": "DT_FLOAT"}}}, {"name": "StatefulPartitionedCall/model/tf__c3_5/tf__conv_44/conv2d_44/Conv2D_bn_offset", "op": "Const", "attr": {"value": {"tensor": {"dtype": "DT_FLOAT", "tensorShape": {"dim": [{"size": "128"}]}}}, "dtype": {"type": "DT_FLOAT"}}}, {"name": "StatefulPartitionedCall/model/tf__conv_47/sequential_10/conv2d_47/Conv2D_weights", "op": "Const", "attr": {"value": {"tensor": {"dtype": "DT_FLOAT", "tensorShape": {"dim": [{"size": "3"}, {"size": "3"}, {"size": "128"}, {"size": "128"}]}}}, "dtype": {"type": "DT_FLOAT"}}}, {"name": "StatefulPartitionedCall/model/tf__conv_47/sequential_10/conv2d_47/Conv2D_bn_offset", "op": "Const", "attr": {"value": {"tensor": {"dtype": "DT_FLOAT", "tensorShape": {"dim": [{"size": "128"}]}}}, "dtype": {"type": "DT_FLOAT"}}}, {"name": "StatefulPartitionedCall/model/tf__c3_6/tf__conv_48/conv2d_48/Conv2D_weights", "op": "Const", "attr": {"value": {"tensor": {"dtype": "DT_FLOAT", "tensorShape": {"dim": [{"size": "1"}, {"size": "1"}, {"size": "256"}, {"size": "128"}]}}}, "dtype": {"type": "DT_FLOAT"}}}, {"name": "StatefulPartitionedCall/model/tf__c3_6/tf__conv_48/conv2d_48/Conv2D_bn_offset", "op": "Const", "attr": {"value": {"tensor": {"dtype": "DT_FLOAT", "tensorShape": {"dim": [{"size": "128"}]}}}, "dtype": {"type": "DT_FLOAT"}}}, {"name": "StatefulPartitionedCall/model/tf__c3_6/tf__conv_49/conv2d_49/Conv2D_weights", "op": "Const", "attr": {"value": {"tensor": {"dtype": "DT_FLOAT", "tensorShape": {"dim": [{"size": "1"}, {"size": "1"}, {"size": "256"}, {"size": "128"}]}}}, "dtype": {"type": "DT_FLOAT"}}}, {"name": "StatefulPartitionedCall/model/tf__c3_6/tf__conv_49/conv2d_49/Conv2D_bn_offset", "op": "Const", "attr": {"value": {"tensor": {"dtype": "DT_FLOAT", "tensorShape": {"dim": [{"size": "128"}]}}}, "dtype": {"type": "DT_FLOAT"}}}, {"name": "StatefulPartitionedCall/model/tf__c3_6/sequential_11/tf__bottleneck_10/tf__conv_51/conv2d_51/Conv2D_weights", "op": "Const", "attr": {"value": {"tensor": {"dtype": "DT_FLOAT", "tensorShape": {"dim": [{"size": "1"}, {"size": "1"}, {"size": "128"}, {"size": "128"}]}}}, "dtype": {"type": "DT_FLOAT"}}}, {"name": "StatefulPartitionedCall/model/tf__c3_6/sequential_11/tf__bottleneck_10/tf__conv_51/conv2d_51/Conv2D_bn_offset", "op": "Const", "attr": {"value": {"tensor": {"dtype": "DT_FLOAT", "tensorShape": {"dim": [{"size": "128"}]}}}, "dtype": {"type": "DT_FLOAT"}}}, {"name": "StatefulPartitionedCall/model/tf__c3_6/sequential_11/tf__bottleneck_10/tf__conv_52/conv2d_52/Conv2D_weights", "op": "Const", "attr": {"value": {"tensor": {"dtype": "DT_FLOAT", "tensorShape": {"dim": [{"size": "3"}, {"size": "3"}, {"size": "128"}, {"size": "128"}]}}}, "dtype": {"type": "DT_FLOAT"}}}, {"name": "StatefulPartitionedCall/model/tf__c3_6/sequential_11/tf__bottleneck_10/tf__conv_52/conv2d_52/Conv2D_bn_offset", "op": "Const", "attr": {"value": {"tensor": {"dtype": "DT_FLOAT", "tensorShape": {"dim": [{"size": "128"}]}}}, "dtype": {"type": "DT_FLOAT"}}}, {"name": "StatefulPartitionedCall/model/tf__c3_6/tf__conv_50/conv2d_50/Conv2D_weights", "op": "Const", "attr": {"value": {"tensor": {"dtype": "DT_FLOAT", "tensorShape": {"dim": [{"size": "1"}, {"size": "1"}, {"size": "256"}, {"size": "256"}]}}}, "dtype": {"type": "DT_FLOAT"}}}, {"name": "StatefulPartitionedCall/model/tf__c3_6/tf__conv_50/conv2d_50/Conv2D_bn_offset", "op": "Const", "attr": {"value": {"tensor": {"dtype": "DT_FLOAT", "tensorShape": {"dim": [{"size": "256"}]}}}, "dtype": {"type": "DT_FLOAT"}}}, {"name": "StatefulPartitionedCall/model/tf__focus/strided_slice", "op": "StridedSlice", "input": ["input_1", "StatefulPartitionedCall/model/tf__focus/strided_slice/stack", "StatefulPartitionedCall/model/tf__focus/strided_slice/stack_1", "StatefulPartitionedCall/model/tf__focus/strided_slice/stack_2"], "attr": {"shrink_axis_mask": {"i": "0"}, "begin_mask": {"i": "15"}, "ellipsis_mask": {"i": "0"}, "new_axis_mask": {"i": "0"}, "end_mask": {"i": "15"}, "Index": {"type": "DT_INT32"}, "T": {"type": "DT_FLOAT"}}}, {"name": "StatefulPartitionedCall/model/tf__focus/strided_slice_1", "op": "StridedSlice", "input": ["input_1", "StatefulPartitionedCall/model/tf__focus/strided_slice_1/stack", "StatefulPartitionedCall/model/tf__focus/strided_slice_1/stack_1", "StatefulPartitionedCall/model/tf__focus/strided_slice_1/stack_2"], "attr": {"T": {"type": "DT_FLOAT"}, "Index": {"type": "DT_INT32"}, "shrink_axis_mask": {"i": "0"}, "ellipsis_mask": {"i": "0"}, "begin_mask": {"i": "13"}, "new_axis_mask": {"i": "0"}, "end_mask": {"i": "15"}}}, {"name": "StatefulPartitionedCall/model/tf__focus/strided_slice_2", "op": "StridedSlice", "input": ["input_1", "StatefulPartitionedCall/model/tf__focus/strided_slice_2/stack", "StatefulPartitionedCall/model/tf__focus/strided_slice_2/stack_1", "StatefulPartitionedCall/model/tf__focus/strided_slice_2/stack_2"], "attr": {"T": {"type": "DT_FLOAT"}, "Index": {"type": "DT_INT32"}, "shrink_axis_mask": {"i": "0"}, "begin_mask": {"i": "11"}, "ellipsis_mask": {"i": "0"}, "new_axis_mask": {"i": "0"}, "end_mask": {"i": "15"}}}, {"name": "StatefulPartitionedCall/model/tf__focus/strided_slice_3", "op": "StridedSlice", "input": ["input_1", "StatefulPartitionedCall/model/tf__focus/strided_slice_3/stack", "StatefulPartitionedCall/model/tf__focus/strided_slice_3/stack_1", "StatefulPartitionedCall/model/tf__focus/strided_slice_3/stack_2"], "attr": {"begin_mask": {"i": "9"}, "ellipsis_mask": {"i": "0"}, "new_axis_mask": {"i": "0"}, "end_mask": {"i": "15"}, "T": {"type": "DT_FLOAT"}, "Index": {"type": "DT_INT32"}, "shrink_axis_mask": {"i": "0"}}}, {"name": "StatefulPartitionedCall/model/tf__focus/concat", "op": "ConcatV2", "input": ["StatefulPartitionedCall/model/tf__focus/strided_slice", "StatefulPartitionedCall/model/tf__focus/strided_slice_1", "StatefulPartitionedCall/model/tf__focus/strided_slice_2", "StatefulPartitionedCall/model/tf__focus/strided_slice_3", "StatefulPartitionedCall/model/tf__focus/concat/axis"], "attr": {"T": {"type": "DT_FLOAT"}, "N": {"i": "4"}, "Tidx": {"type": "DT_INT32"}}}, {"name": "StatefulPartitionedCall/model/tf__focus/tf__conv/tf_bn/batch_normalization/FusedBatchNormV3", "op": "_FusedConv2D", "input": ["StatefulPartitionedCall/model/tf__focus/concat", "StatefulPartitionedCall/model/tf__focus/tf__conv/conv2d/Conv2D_weights", "StatefulPartitionedCall/model/tf__focus/tf__conv/conv2d/Conv2D_bn_offset"], "device": "/device:CPU:0", "attr": {"data_format": {"s": "TkhXQw=="}, "strides": {"list": {"i": ["1", "1", "1", "1"]}}, "explicit_paddings": {"list": {}}, "use_cudnn_on_gpu": {"b": true}, "num_args": {"i": "1"}, "epsilon": {"f": 0.0}, "padding": {"s": "U0FNRQ=="}, "fused_ops": {"list": {"s": ["Qmlhc0FkZA=="]}}, "dilations": {"list": {"i": ["1", "1", "1", "1"]}}, "T": {"type": "DT_FLOAT"}}}, {"name": "StatefulPartitionedCall/model/tf__focus/tf__conv/Sigmoid", "op": "Sigmoid", "input": ["StatefulPartitionedCall/model/tf__focus/tf__conv/tf_bn/batch_normalization/FusedBatchNormV3"], "attr": {"T": {"type": "DT_FLOAT"}}}, {"name": "StatefulPartitionedCall/model/tf__focus/tf__conv/mul", "op": "Mul", "input": ["StatefulPartitionedCall/model/tf__focus/tf__conv/tf_bn/batch_normalization/FusedBatchNormV3", "StatefulPartitionedCall/model/tf__focus/tf__conv/Sigmoid"], "attr": {"T": {"type": "DT_FLOAT"}}}, {"name": "StatefulPartitionedCall/model/tf__conv_1/sequential/tf__pad/Pad", "op": "Pad", "input": ["StatefulPartitionedCall/model/tf__focus/tf__conv/mul", "unknown_4"], "attr": {"T": {"type": "DT_FLOAT"}, "Tpaddings": {"type": "DT_INT32"}}}, {"name": "StatefulPartitionedCall/model/tf__conv_1/tf_bn_1/batch_normalization_1/FusedBatchNormV3", "op": "_FusedConv2D", "input": ["StatefulPartitionedCall/model/tf__conv_1/sequential/tf__pad/Pad", "StatefulPartitionedCall/model/tf__conv_1/sequential/conv2d_1/Conv2D_weights", "StatefulPartitionedCall/model/tf__conv_1/sequential/conv2d_1/Conv2D_bn_offset"], "device": "/device:CPU:0", "attr": {"strides": {"list": {"i": ["1", "2", "2", "1"]}}, "data_format": {"s": "TkhXQw=="}, "explicit_paddings": {"list": {}}, "use_cudnn_on_gpu": {"b": true}, "num_args": {"i": "1"}, "epsilon": {"f": 0.0}, "padding": {"s": "VkFMSUQ="}, "fused_ops": {"list": {"s": ["Qmlhc0FkZA=="]}}, "dilations": {"list": {"i": ["1", "1", "1", "1"]}}, "T": {"type": "DT_FLOAT"}}}, {"name": "StatefulPartitionedCall/model/tf__conv_1/Sigmoid", "op": "Sigmoid", "input": ["StatefulPartitionedCall/model/tf__conv_1/tf_bn_1/batch_normalization_1/FusedBatchNormV3"], "attr": {"T": {"type": "DT_FLOAT"}}}, {"name": "StatefulPartitionedCall/model/tf__conv_1/mul", "op": "Mul", "input": ["StatefulPartitionedCall/model/tf__conv_1/tf_bn_1/batch_normalization_1/FusedBatchNormV3", "StatefulPartitionedCall/model/tf__conv_1/Sigmoid"], "attr": {"T": {"type": "DT_FLOAT"}}}, {"name": "StatefulPartitionedCall/model/tf__c3/tf__conv_2/tf_bn_2/batch_normalization_2/FusedBatchNormV3", "op": "_FusedConv2D", "input": ["StatefulPartitionedCall/model/tf__conv_1/mul", "StatefulPartitionedCall/model/tf__c3/tf__conv_2/conv2d_2/Conv2D_weights", "StatefulPartitionedCall/model/tf__c3/tf__conv_2/conv2d_2/Conv2D_bn_offset"], "device": "/device:CPU:0", "attr": {"dilations": {"list": {"i": ["1", "1", "1", "1"]}}, "T": {"type": "DT_FLOAT"}, "data_format": {"s": "TkhXQw=="}, "strides": {"list": {"i": ["1", "1", "1", "1"]}}, "use_cudnn_on_gpu": {"b": true}, "explicit_paddings": {"list": {}}, "num_args": {"i": "1"}, "epsilon": {"f": 0.0}, "padding": {"s": "U0FNRQ=="}, "fused_ops": {"list": {"s": ["Qmlhc0FkZA=="]}}}}, {"name": "StatefulPartitionedCall/model/tf__c3/tf__conv_3/tf_bn_3/batch_normalization_3/FusedBatchNormV3", "op": "_FusedConv2D", "input": ["StatefulPartitionedCall/model/tf__conv_1/mul", "StatefulPartitionedCall/model/tf__c3/tf__conv_3/conv2d_3/Conv2D_weights", "StatefulPartitionedCall/model/tf__c3/tf__conv_3/conv2d_3/Conv2D_bn_offset"], "device": "/device:CPU:0", "attr": {"dilations": {"list": {"i": ["1", "1", "1", "1"]}}, "T": {"type": "DT_FLOAT"}, "strides": {"list": {"i": ["1", "1", "1", "1"]}}, "data_format": {"s": "TkhXQw=="}, "explicit_paddings": {"list": {}}, "use_cudnn_on_gpu": {"b": true}, "num_args": {"i": "1"}, "epsilon": {"f": 0.0}, "padding": {"s": "U0FNRQ=="}, "fused_ops": {"list": {"s": ["Qmlhc0FkZA=="]}}}}, {"name": "StatefulPartitionedCall/model/tf__c3/tf__conv_2/Sigmoid", "op": "Sigmoid", "input": ["StatefulPartitionedCall/model/tf__c3/tf__conv_2/tf_bn_2/batch_normalization_2/FusedBatchNormV3"], "attr": {"T": {"type": "DT_FLOAT"}}}, {"name": "StatefulPartitionedCall/model/tf__c3/tf__conv_3/Sigmoid", "op": "Sigmoid", "input": ["StatefulPartitionedCall/model/tf__c3/tf__conv_3/tf_bn_3/batch_normalization_3/FusedBatchNormV3"], "attr": {"T": {"type": "DT_FLOAT"}}}, {"name": "StatefulPartitionedCall/model/tf__c3/tf__conv_2/mul", "op": "Mul", "input": ["StatefulPartitionedCall/model/tf__c3/tf__conv_2/tf_bn_2/batch_normalization_2/FusedBatchNormV3", "StatefulPartitionedCall/model/tf__c3/tf__conv_2/Sigmoid"], "attr": {"T": {"type": "DT_FLOAT"}}}, {"name": "StatefulPartitionedCall/model/tf__c3/tf__conv_3/mul", "op": "Mul", "input": ["StatefulPartitionedCall/model/tf__c3/tf__conv_3/tf_bn_3/batch_normalization_3/FusedBatchNormV3", "StatefulPartitionedCall/model/tf__c3/tf__conv_3/Sigmoid"], "attr": {"T": {"type": "DT_FLOAT"}}}, {"name": "StatefulPartitionedCall/model/tf__c3/sequential_1/tf__bottleneck/tf__conv_5/tf_bn_5/batch_normalization_5/FusedBatchNormV3", "op": "_FusedConv2D", "input": ["StatefulPartitionedCall/model/tf__c3/tf__conv_2/mul", "StatefulPartitionedCall/model/tf__c3/sequential_1/tf__bottleneck/tf__conv_5/conv2d_5/Conv2D_weights", "StatefulPartitionedCall/model/tf__c3/sequential_1/tf__bottleneck/tf__conv_5/conv2d_5/Conv2D_bn_offset"], "device": "/device:CPU:0", "attr": {"num_args": {"i": "1"}, "epsilon": {"f": 0.0}, "padding": {"s": "U0FNRQ=="}, "fused_ops": {"list": {"s": ["Qmlhc0FkZA=="]}}, "dilations": {"list": {"i": ["1", "1", "1", "1"]}}, "T": {"type": "DT_FLOAT"}, "data_format": {"s": "TkhXQw=="}, "strides": {"list": {"i": ["1", "1", "1", "1"]}}, "explicit_paddings": {"list": {}}, "use_cudnn_on_gpu": {"b": true}}}, {"name": "StatefulPartitionedCall/model/tf__c3/sequential_1/tf__bottleneck/tf__conv_5/Sigmoid", "op": "Sigmoid", "input": ["StatefulPartitionedCall/model/tf__c3/sequential_1/tf__bottleneck/tf__conv_5/tf_bn_5/batch_normalization_5/FusedBatchNormV3"], "attr": {"T": {"type": "DT_FLOAT"}}}, {"name": "StatefulPartitionedCall/model/tf__c3/sequential_1/tf__bottleneck/tf__conv_5/mul", "op": "Mul", "input": ["StatefulPartitionedCall/model/tf__c3/sequential_1/tf__bottleneck/tf__conv_5/tf_bn_5/batch_normalization_5/FusedBatchNormV3", "StatefulPartitionedCall/model/tf__c3/sequential_1/tf__bottleneck/tf__conv_5/Sigmoid"], "attr": {"T": {"type": "DT_FLOAT"}}}, {"name": "StatefulPartitionedCall/model/tf__c3/sequential_1/tf__bottleneck/tf__conv_6/tf_bn_6/batch_normalization_6/FusedBatchNormV3", "op": "_FusedConv2D", "input": ["StatefulPartitionedCall/model/tf__c3/sequential_1/tf__bottleneck/tf__conv_5/mul", "StatefulPartitionedCall/model/tf__c3/sequential_1/tf__bottleneck/tf__conv_6/conv2d_6/Conv2D_weights", "StatefulPartitionedCall/model/tf__c3/sequential_1/tf__bottleneck/tf__conv_6/conv2d_6/Conv2D_bn_offset"], "device": "/device:CPU:0", "attr": {"dilations": {"list": {"i": ["1", "1", "1", "1"]}}, "T": {"type": "DT_FLOAT"}, "data_format": {"s": "TkhXQw=="}, "strides": {"list": {"i": ["1", "1", "1", "1"]}}, "use_cudnn_on_gpu": {"b": true}, "explicit_paddings": {"list": {}}, "num_args": {"i": "1"}, "epsilon": {"f": 0.0}, "padding": {"s": "U0FNRQ=="}, "fused_ops": {"list": {"s": ["Qmlhc0FkZA=="]}}}}, {"name": "StatefulPartitionedCall/model/tf__c3/sequential_1/tf__bottleneck/tf__conv_6/Sigmoid", "op": "Sigmoid", "input": ["StatefulPartitionedCall/model/tf__c3/sequential_1/tf__bottleneck/tf__conv_6/tf_bn_6/batch_normalization_6/FusedBatchNormV3"], "attr": {"T": {"type": "DT_FLOAT"}}}, {"name": "StatefulPartitionedCall/model/tf__c3/sequential_1/tf__bottleneck/tf__conv_6/mul", "op": "Mul", "input": ["StatefulPartitionedCall/model/tf__c3/sequential_1/tf__bottleneck/tf__conv_6/tf_bn_6/batch_normalization_6/FusedBatchNormV3", "StatefulPartitionedCall/model/tf__c3/sequential_1/tf__bottleneck/tf__conv_6/Sigmoid"], "attr": {"T": {"type": "DT_FLOAT"}}}, {"name": "StatefulPartitionedCall/model/tf__c3/sequential_1/tf__bottleneck/add", "op": "AddV2", "input": ["StatefulPartitionedCall/model/tf__c3/tf__conv_2/mul", "StatefulPartitionedCall/model/tf__c3/sequential_1/tf__bottleneck/tf__conv_6/mul"], "attr": {"T": {"type": "DT_FLOAT"}}}, {"name": "StatefulPartitionedCall/model/tf__c3/concat", "op": "ConcatV2", "input": ["StatefulPartitionedCall/model/tf__c3/sequential_1/tf__bottleneck/add", "StatefulPartitionedCall/model/tf__c3/tf__conv_3/mul", "StatefulPartitionedCall/model/tf__c3/concat/axis"], "attr": {"T": {"type": "DT_FLOAT"}, "N": {"i": "2"}, "Tidx": {"type": "DT_INT32"}}}, {"name": "StatefulPartitionedCall/model/tf__c3/tf__conv_4/tf_bn_4/batch_normalization_4/FusedBatchNormV3", "op": "_FusedConv2D", "input": ["StatefulPartitionedCall/model/tf__c3/concat", "StatefulPartitionedCall/model/tf__c3/tf__conv_4/conv2d_4/Conv2D_weights", "StatefulPartitionedCall/model/tf__c3/tf__conv_4/conv2d_4/Conv2D_bn_offset"], "device": "/device:CPU:0", "attr": {"data_format": {"s": "TkhXQw=="}, "strides": {"list": {"i": ["1", "1", "1", "1"]}}, "explicit_paddings": {"list": {}}, "use_cudnn_on_gpu": {"b": true}, "num_args": {"i": "1"}, "epsilon": {"f": 0.0}, "padding": {"s": "U0FNRQ=="}, "fused_ops": {"list": {"s": ["Qmlhc0FkZA=="]}}, "dilations": {"list": {"i": ["1", "1", "1", "1"]}}, "T": {"type": "DT_FLOAT"}}}, {"name": "StatefulPartitionedCall/model/tf__c3/tf__conv_4/Sigmoid", "op": "Sigmoid", "input": ["StatefulPartitionedCall/model/tf__c3/tf__conv_4/tf_bn_4/batch_normalization_4/FusedBatchNormV3"], "attr": {"T": {"type": "DT_FLOAT"}}}, {"name": "StatefulPartitionedCall/model/tf__c3/tf__conv_4/mul", "op": "Mul", "input": ["StatefulPartitionedCall/model/tf__c3/tf__conv_4/tf_bn_4/batch_normalization_4/FusedBatchNormV3", "StatefulPartitionedCall/model/tf__c3/tf__conv_4/Sigmoid"], "attr": {"T": {"type": "DT_FLOAT"}}}, {"name": "StatefulPartitionedCall/model/tf__conv_7/sequential_2/tf__pad_1/Pad", "op": "Pad", "input": ["StatefulPartitionedCall/model/tf__c3/tf__conv_4/mul", "unknown_35"], "attr": {"Tpaddings": {"type": "DT_INT32"}, "T": {"type": "DT_FLOAT"}}}, {"name": "StatefulPartitionedCall/model/tf__conv_7/tf_bn_7/batch_normalization_7/FusedBatchNormV3", "op": "_FusedConv2D", "input": ["StatefulPartitionedCall/model/tf__conv_7/sequential_2/tf__pad_1/Pad", "StatefulPartitionedCall/model/tf__conv_7/sequential_2/conv2d_7/Conv2D_weights", "StatefulPartitionedCall/model/tf__conv_7/sequential_2/conv2d_7/Conv2D_bn_offset"], "device": "/device:CPU:0", "attr": {"dilations": {"list": {"i": ["1", "1", "1", "1"]}}, "T": {"type": "DT_FLOAT"}, "strides": {"list": {"i": ["1", "2", "2", "1"]}}, "data_format": {"s": "TkhXQw=="}, "use_cudnn_on_gpu": {"b": true}, "explicit_paddings": {"list": {}}, "num_args": {"i": "1"}, "epsilon": {"f": 0.0}, "padding": {"s": "VkFMSUQ="}, "fused_ops": {"list": {"s": ["Qmlhc0FkZA=="]}}}}, {"name": "StatefulPartitionedCall/model/tf__conv_7/Sigmoid", "op": "Sigmoid", "input": ["StatefulPartitionedCall/model/tf__conv_7/tf_bn_7/batch_normalization_7/FusedBatchNormV3"], "attr": {"T": {"type": "DT_FLOAT"}}}, {"name": "StatefulPartitionedCall/model/tf__conv_7/mul", "op": "Mul", "input": ["StatefulPartitionedCall/model/tf__conv_7/tf_bn_7/batch_normalization_7/FusedBatchNormV3", "StatefulPartitionedCall/model/tf__conv_7/Sigmoid"], "attr": {"T": {"type": "DT_FLOAT"}}}, {"name": "StatefulPartitionedCall/model/tf__c3_1/tf__conv_8/tf_bn_8/batch_normalization_8/FusedBatchNormV3", "op": "_FusedConv2D", "input": ["StatefulPartitionedCall/model/tf__conv_7/mul", "StatefulPartitionedCall/model/tf__c3_1/tf__conv_8/conv2d_8/Conv2D_weights", "StatefulPartitionedCall/model/tf__c3_1/tf__conv_8/conv2d_8/Conv2D_bn_offset"], "device": "/device:CPU:0", "attr": {"dilations": {"list": {"i": ["1", "1", "1", "1"]}}, "T": {"type": "DT_FLOAT"}, "data_format": {"s": "TkhXQw=="}, "strides": {"list": {"i": ["1", "1", "1", "1"]}}, "use_cudnn_on_gpu": {"b": true}, "explicit_paddings": {"list": {}}, "num_args": {"i": "1"}, "epsilon": {"f": 0.0}, "padding": {"s": "U0FNRQ=="}, "fused_ops": {"list": {"s": ["Qmlhc0FkZA=="]}}}}, {"name": "StatefulPartitionedCall/model/tf__c3_1/tf__conv_9/tf_bn_9/batch_normalization_9/FusedBatchNormV3", "op": "_FusedConv2D", "input": ["StatefulPartitionedCall/model/tf__conv_7/mul", "StatefulPartitionedCall/model/tf__c3_1/tf__conv_9/conv2d_9/Conv2D_weights", "StatefulPartitionedCall/model/tf__c3_1/tf__conv_9/conv2d_9/Conv2D_bn_offset"], "device": "/device:CPU:0", "attr": {"dilations": {"list": {"i": ["1", "1", "1", "1"]}}, "T": {"type": "DT_FLOAT"}, "strides": {"list": {"i": ["1", "1", "1", "1"]}}, "data_format": {"s": "TkhXQw=="}, "use_cudnn_on_gpu": {"b": true}, "explicit_paddings": {"list": {}}, "num_args": {"i": "1"}, "epsilon": {"f": 0.0}, "padding": {"s": "U0FNRQ=="}, "fused_ops": {"list": {"s": ["Qmlhc0FkZA=="]}}}}, {"name": "StatefulPartitionedCall/model/tf__c3_1/tf__conv_8/Sigmoid", "op": "Sigmoid", "input": ["StatefulPartitionedCall/model/tf__c3_1/tf__conv_8/tf_bn_8/batch_normalization_8/FusedBatchNormV3"], "attr": {"T": {"type": "DT_FLOAT"}}}, {"name": "StatefulPartitionedCall/model/tf__c3_1/tf__conv_9/Sigmoid", "op": "Sigmoid", "input": ["StatefulPartitionedCall/model/tf__c3_1/tf__conv_9/tf_bn_9/batch_normalization_9/FusedBatchNormV3"], "attr": {"T": {"type": "DT_FLOAT"}}}, {"name": "StatefulPartitionedCall/model/tf__c3_1/tf__conv_8/mul", "op": "Mul", "input": ["StatefulPartitionedCall/model/tf__c3_1/tf__conv_8/tf_bn_8/batch_normalization_8/FusedBatchNormV3", "StatefulPartitionedCall/model/tf__c3_1/tf__conv_8/Sigmoid"], "attr": {"T": {"type": "DT_FLOAT"}}}, {"name": "StatefulPartitionedCall/model/tf__c3_1/tf__conv_9/mul", "op": "Mul", "input": ["StatefulPartitionedCall/model/tf__c3_1/tf__conv_9/tf_bn_9/batch_normalization_9/FusedBatchNormV3", "StatefulPartitionedCall/model/tf__c3_1/tf__conv_9/Sigmoid"], "attr": {"T": {"type": "DT_FLOAT"}}}, {"name": "StatefulPartitionedCall/model/tf__c3_1/sequential_3/tf__bottleneck_1/tf__conv_11/tf_bn_11/batch_normalization_11/FusedBatchNormV3", "op": "_FusedConv2D", "input": ["StatefulPartitionedCall/model/tf__c3_1/tf__conv_8/mul", "StatefulPartitionedCall/model/tf__c3_1/sequential_3/tf__bottleneck_1/tf__conv_11/conv2d_11/Conv2D_weights", "StatefulPartitionedCall/model/tf__c3_1/sequential_3/tf__bottleneck_1/tf__conv_11/conv2d_11/Conv2D_bn_offset"], "device": "/device:CPU:0", "attr": {"epsilon": {"f": 0.0}, "padding": {"s": "U0FNRQ=="}, "fused_ops": {"list": {"s": ["Qmlhc0FkZA=="]}}, "dilations": {"list": {"i": ["1", "1", "1", "1"]}}, "T": {"type": "DT_FLOAT"}, "strides": {"list": {"i": ["1", "1", "1", "1"]}}, "data_format": {"s": "TkhXQw=="}, "use_cudnn_on_gpu": {"b": true}, "explicit_paddings": {"list": {}}, "num_args": {"i": "1"}}}, {"name": "StatefulPartitionedCall/model/tf__c3_1/sequential_3/tf__bottleneck_1/tf__conv_11/Sigmoid", "op": "Sigmoid", "input": ["StatefulPartitionedCall/model/tf__c3_1/sequential_3/tf__bottleneck_1/tf__conv_11/tf_bn_11/batch_normalization_11/FusedBatchNormV3"], "attr": {"T": {"type": "DT_FLOAT"}}}, {"name": "StatefulPartitionedCall/model/tf__c3_1/sequential_3/tf__bottleneck_1/tf__conv_11/mul", "op": "Mul", "input": ["StatefulPartitionedCall/model/tf__c3_1/sequential_3/tf__bottleneck_1/tf__conv_11/tf_bn_11/batch_normalization_11/FusedBatchNormV3", "StatefulPartitionedCall/model/tf__c3_1/sequential_3/tf__bottleneck_1/tf__conv_11/Sigmoid"], "attr": {"T": {"type": "DT_FLOAT"}}}, {"name": "StatefulPartitionedCall/model/tf__c3_1/sequential_3/tf__bottleneck_1/tf__conv_12/tf_bn_12/batch_normalization_12/FusedBatchNormV3", "op": "_FusedConv2D", "input": ["StatefulPartitionedCall/model/tf__c3_1/sequential_3/tf__bottleneck_1/tf__conv_11/mul", "StatefulPartitionedCall/model/tf__c3_1/sequential_3/tf__bottleneck_1/tf__conv_12/conv2d_12/Conv2D_weights", "StatefulPartitionedCall/model/tf__c3_1/sequential_3/tf__bottleneck_1/tf__conv_12/conv2d_12/Conv2D_bn_offset"], "device": "/device:CPU:0", "attr": {"dilations": {"list": {"i": ["1", "1", "1", "1"]}}, "T": {"type": "DT_FLOAT"}, "data_format": {"s": "TkhXQw=="}, "strides": {"list": {"i": ["1", "1", "1", "1"]}}, "explicit_paddings": {"list": {}}, "use_cudnn_on_gpu": {"b": true}, "num_args": {"i": "1"}, "epsilon": {"f": 0.0}, "padding": {"s": "U0FNRQ=="}, "fused_ops": {"list": {"s": ["Qmlhc0FkZA=="]}}}}, {"name": "StatefulPartitionedCall/model/tf__c3_1/sequential_3/tf__bottleneck_1/tf__conv_12/Sigmoid", "op": "Sigmoid", "input": ["StatefulPartitionedCall/model/tf__c3_1/sequential_3/tf__bottleneck_1/tf__conv_12/tf_bn_12/batch_normalization_12/FusedBatchNormV3"], "attr": {"T": {"type": "DT_FLOAT"}}}, {"name": "StatefulPartitionedCall/model/tf__c3_1/sequential_3/tf__bottleneck_1/tf__conv_12/mul", "op": "Mul", "input": ["StatefulPartitionedCall/model/tf__c3_1/sequential_3/tf__bottleneck_1/tf__conv_12/tf_bn_12/batch_normalization_12/FusedBatchNormV3", "StatefulPartitionedCall/model/tf__c3_1/sequential_3/tf__bottleneck_1/tf__conv_12/Sigmoid"], "attr": {"T": {"type": "DT_FLOAT"}}}, {"name": "StatefulPartitionedCall/model/tf__c3_1/sequential_3/tf__bottleneck_1/add", "op": "AddV2", "input": ["StatefulPartitionedCall/model/tf__c3_1/tf__conv_8/mul", "StatefulPartitionedCall/model/tf__c3_1/sequential_3/tf__bottleneck_1/tf__conv_12/mul"], "attr": {"T": {"type": "DT_FLOAT"}}}, {"name": "StatefulPartitionedCall/model/tf__c3_1/sequential_3/tf__bottleneck_2/tf__conv_13/tf_bn_13/batch_normalization_13/FusedBatchNormV3", "op": "_FusedConv2D", "input": ["StatefulPartitionedCall/model/tf__c3_1/sequential_3/tf__bottleneck_1/add", "StatefulPartitionedCall/model/tf__c3_1/sequential_3/tf__bottleneck_2/tf__conv_13/conv2d_13/Conv2D_weights", "StatefulPartitionedCall/model/tf__c3_1/sequential_3/tf__bottleneck_2/tf__conv_13/conv2d_13/Conv2D_bn_offset"], "device": "/device:CPU:0", "attr": {"dilations": {"list": {"i": ["1", "1", "1", "1"]}}, "T": {"type": "DT_FLOAT"}, "strides": {"list": {"i": ["1", "1", "1", "1"]}}, "data_format": {"s": "TkhXQw=="}, "explicit_paddings": {"list": {}}, "use_cudnn_on_gpu": {"b": true}, "num_args": {"i": "1"}, "epsilon": {"f": 0.0}, "padding": {"s": "U0FNRQ=="}, "fused_ops": {"list": {"s": ["Qmlhc0FkZA=="]}}}}, {"name": "StatefulPartitionedCall/model/tf__c3_1/sequential_3/tf__bottleneck_2/tf__conv_13/Sigmoid", "op": "Sigmoid", "input": ["StatefulPartitionedCall/model/tf__c3_1/sequential_3/tf__bottleneck_2/tf__conv_13/tf_bn_13/batch_normalization_13/FusedBatchNormV3"], "attr": {"T": {"type": "DT_FLOAT"}}}, {"name": "StatefulPartitionedCall/model/tf__c3_1/sequential_3/tf__bottleneck_2/tf__conv_13/mul", "op": "Mul", "input": ["StatefulPartitionedCall/model/tf__c3_1/sequential_3/tf__bottleneck_2/tf__conv_13/tf_bn_13/batch_normalization_13/FusedBatchNormV3", "StatefulPartitionedCall/model/tf__c3_1/sequential_3/tf__bottleneck_2/tf__conv_13/Sigmoid"], "attr": {"T": {"type": "DT_FLOAT"}}}, {"name": "StatefulPartitionedCall/model/tf__c3_1/sequential_3/tf__bottleneck_2/tf__conv_14/tf_bn_14/batch_normalization_14/FusedBatchNormV3", "op": "_FusedConv2D", "input": ["StatefulPartitionedCall/model/tf__c3_1/sequential_3/tf__bottleneck_2/tf__conv_13/mul", "StatefulPartitionedCall/model/tf__c3_1/sequential_3/tf__bottleneck_2/tf__conv_14/conv2d_14/Conv2D_weights", "StatefulPartitionedCall/model/tf__c3_1/sequential_3/tf__bottleneck_2/tf__conv_14/conv2d_14/Conv2D_bn_offset"], "device": "/device:CPU:0", "attr": {"data_format": {"s": "TkhXQw=="}, "strides": {"list": {"i": ["1", "1", "1", "1"]}}, "explicit_paddings": {"list": {}}, "use_cudnn_on_gpu": {"b": true}, "num_args": {"i": "1"}, "epsilon": {"f": 0.0}, "padding": {"s": "U0FNRQ=="}, "fused_ops": {"list": {"s": ["Qmlhc0FkZA=="]}}, "dilations": {"list": {"i": ["1", "1", "1", "1"]}}, "T": {"type": "DT_FLOAT"}}}, {"name": "StatefulPartitionedCall/model/tf__c3_1/sequential_3/tf__bottleneck_2/tf__conv_14/Sigmoid", "op": "Sigmoid", "input": ["StatefulPartitionedCall/model/tf__c3_1/sequential_3/tf__bottleneck_2/tf__conv_14/tf_bn_14/batch_normalization_14/FusedBatchNormV3"], "attr": {"T": {"type": "DT_FLOAT"}}}, {"name": "StatefulPartitionedCall/model/tf__c3_1/sequential_3/tf__bottleneck_2/tf__conv_14/mul", "op": "Mul", "input": ["StatefulPartitionedCall/model/tf__c3_1/sequential_3/tf__bottleneck_2/tf__conv_14/tf_bn_14/batch_normalization_14/FusedBatchNormV3", "StatefulPartitionedCall/model/tf__c3_1/sequential_3/tf__bottleneck_2/tf__conv_14/Sigmoid"], "attr": {"T": {"type": "DT_FLOAT"}}}, {"name": "StatefulPartitionedCall/model/tf__c3_1/sequential_3/tf__bottleneck_2/add", "op": "AddV2", "input": ["StatefulPartitionedCall/model/tf__c3_1/sequential_3/tf__bottleneck_1/add", "StatefulPartitionedCall/model/tf__c3_1/sequential_3/tf__bottleneck_2/tf__conv_14/mul"], "attr": {"T": {"type": "DT_FLOAT"}}}, {"name": "StatefulPartitionedCall/model/tf__c3_1/sequential_3/tf__bottleneck_3/tf__conv_15/tf_bn_15/batch_normalization_15/FusedBatchNormV3", "op": "_FusedConv2D", "input": ["StatefulPartitionedCall/model/tf__c3_1/sequential_3/tf__bottleneck_2/add", "StatefulPartitionedCall/model/tf__c3_1/sequential_3/tf__bottleneck_3/tf__conv_15/conv2d_15/Conv2D_weights", "StatefulPartitionedCall/model/tf__c3_1/sequential_3/tf__bottleneck_3/tf__conv_15/conv2d_15/Conv2D_bn_offset"], "device": "/device:CPU:0", "attr": {"num_args": {"i": "1"}, "epsilon": {"f": 0.0}, "padding": {"s": "U0FNRQ=="}, "fused_ops": {"list": {"s": ["Qmlhc0FkZA=="]}}, "dilations": {"list": {"i": ["1", "1", "1", "1"]}}, "T": {"type": "DT_FLOAT"}, "data_format": {"s": "TkhXQw=="}, "strides": {"list": {"i": ["1", "1", "1", "1"]}}, "use_cudnn_on_gpu": {"b": true}, "explicit_paddings": {"list": {}}}}, {"name": "StatefulPartitionedCall/model/tf__c3_1/sequential_3/tf__bottleneck_3/tf__conv_15/Sigmoid", "op": "Sigmoid", "input": ["StatefulPartitionedCall/model/tf__c3_1/sequential_3/tf__bottleneck_3/tf__conv_15/tf_bn_15/batch_normalization_15/FusedBatchNormV3"], "attr": {"T": {"type": "DT_FLOAT"}}}, {"name": "StatefulPartitionedCall/model/tf__c3_1/sequential_3/tf__bottleneck_3/tf__conv_15/mul", "op": "Mul", "input": ["StatefulPartitionedCall/model/tf__c3_1/sequential_3/tf__bottleneck_3/tf__conv_15/tf_bn_15/batch_normalization_15/FusedBatchNormV3", "StatefulPartitionedCall/model/tf__c3_1/sequential_3/tf__bottleneck_3/tf__conv_15/Sigmoid"], "attr": {"T": {"type": "DT_FLOAT"}}}, {"name": "StatefulPartitionedCall/model/tf__c3_1/sequential_3/tf__bottleneck_3/tf__conv_16/tf_bn_16/batch_normalization_16/FusedBatchNormV3", "op": "_FusedConv2D", "input": ["StatefulPartitionedCall/model/tf__c3_1/sequential_3/tf__bottleneck_3/tf__conv_15/mul", "StatefulPartitionedCall/model/tf__c3_1/sequential_3/tf__bottleneck_3/tf__conv_16/conv2d_16/Conv2D_weights", "StatefulPartitionedCall/model/tf__c3_1/sequential_3/tf__bottleneck_3/tf__conv_16/conv2d_16/Conv2D_bn_offset"], "device": "/device:CPU:0", "attr": {"data_format": {"s": "TkhXQw=="}, "strides": {"list": {"i": ["1", "1", "1", "1"]}}, "use_cudnn_on_gpu": {"b": true}, "explicit_paddings": {"list": {}}, "num_args": {"i": "1"}, "epsilon": {"f": 0.0}, "padding": {"s": "U0FNRQ=="}, "fused_ops": {"list": {"s": ["Qmlhc0FkZA=="]}}, "dilations": {"list": {"i": ["1", "1", "1", "1"]}}, "T": {"type": "DT_FLOAT"}}}, {"name": "StatefulPartitionedCall/model/tf__c3_1/sequential_3/tf__bottleneck_3/tf__conv_16/Sigmoid", "op": "Sigmoid", "input": ["StatefulPartitionedCall/model/tf__c3_1/sequential_3/tf__bottleneck_3/tf__conv_16/tf_bn_16/batch_normalization_16/FusedBatchNormV3"], "attr": {"T": {"type": "DT_FLOAT"}}}, {"name": "StatefulPartitionedCall/model/tf__c3_1/sequential_3/tf__bottleneck_3/tf__conv_16/mul", "op": "Mul", "input": ["StatefulPartitionedCall/model/tf__c3_1/sequential_3/tf__bottleneck_3/tf__conv_16/tf_bn_16/batch_normalization_16/FusedBatchNormV3", "StatefulPartitionedCall/model/tf__c3_1/sequential_3/tf__bottleneck_3/tf__conv_16/Sigmoid"], "attr": {"T": {"type": "DT_FLOAT"}}}, {"name": "StatefulPartitionedCall/model/tf__c3_1/sequential_3/tf__bottleneck_3/add", "op": "AddV2", "input": ["StatefulPartitionedCall/model/tf__c3_1/sequential_3/tf__bottleneck_2/add", "StatefulPartitionedCall/model/tf__c3_1/sequential_3/tf__bottleneck_3/tf__conv_16/mul"], "attr": {"T": {"type": "DT_FLOAT"}}}, {"name": "StatefulPartitionedCall/model/tf__c3_1/concat", "op": "ConcatV2", "input": ["StatefulPartitionedCall/model/tf__c3_1/sequential_3/tf__bottleneck_3/add", "StatefulPartitionedCall/model/tf__c3_1/tf__conv_9/mul", "StatefulPartitionedCall/model/tf__c3_1/concat/axis"], "attr": {"N": {"i": "2"}, "Tidx": {"type": "DT_INT32"}, "T": {"type": "DT_FLOAT"}}}, {"name": "StatefulPartitionedCall/model/tf__c3_1/tf__conv_10/tf_bn_10/batch_normalization_10/FusedBatchNormV3", "op": "_FusedConv2D", "input": ["StatefulPartitionedCall/model/tf__c3_1/concat", "StatefulPartitionedCall/model/tf__c3_1/tf__conv_10/conv2d_10/Conv2D_weights", "StatefulPartitionedCall/model/tf__c3_1/tf__conv_10/conv2d_10/Conv2D_bn_offset"], "device": "/device:CPU:0", "attr": {"dilations": {"list": {"i": ["1", "1", "1", "1"]}}, "T": {"type": "DT_FLOAT"}, "data_format": {"s": "TkhXQw=="}, "strides": {"list": {"i": ["1", "1", "1", "1"]}}, "explicit_paddings": {"list": {}}, "use_cudnn_on_gpu": {"b": true}, "num_args": {"i": "1"}, "epsilon": {"f": 0.0}, "padding": {"s": "U0FNRQ=="}, "fused_ops": {"list": {"s": ["Qmlhc0FkZA=="]}}}}, {"name": "StatefulPartitionedCall/model/tf__c3_1/tf__conv_10/Sigmoid", "op": "Sigmoid", "input": ["StatefulPartitionedCall/model/tf__c3_1/tf__conv_10/tf_bn_10/batch_normalization_10/FusedBatchNormV3"], "attr": {"T": {"type": "DT_FLOAT"}}}, {"name": "StatefulPartitionedCall/model/tf__c3_1/tf__conv_10/mul", "op": "Mul", "input": ["StatefulPartitionedCall/model/tf__c3_1/tf__conv_10/tf_bn_10/batch_normalization_10/FusedBatchNormV3", "StatefulPartitionedCall/model/tf__c3_1/tf__conv_10/Sigmoid"], "attr": {"T": {"type": "DT_FLOAT"}}}, {"name": "StatefulPartitionedCall/model/tf__conv_17/sequential_4/tf__pad_2/Pad", "op": "Pad", "input": ["StatefulPartitionedCall/model/tf__c3_1/tf__conv_10/mul", "unknown_86"], "attr": {"Tpaddings": {"type": "DT_INT32"}, "T": {"type": "DT_FLOAT"}}}, {"name": "StatefulPartitionedCall/model/tf__conv_17/tf_bn_17/batch_normalization_17/FusedBatchNormV3", "op": "_FusedConv2D", "input": ["StatefulPartitionedCall/model/tf__conv_17/sequential_4/tf__pad_2/Pad", "StatefulPartitionedCall/model/tf__conv_17/sequential_4/conv2d_17/Conv2D_weights", "StatefulPartitionedCall/model/tf__conv_17/sequential_4/conv2d_17/Conv2D_bn_offset"], "device": "/device:CPU:0", "attr": {"dilations": {"list": {"i": ["1", "1", "1", "1"]}}, "T": {"type": "DT_FLOAT"}, "data_format": {"s": "TkhXQw=="}, "strides": {"list": {"i": ["1", "2", "2", "1"]}}, "explicit_paddings": {"list": {}}, "use_cudnn_on_gpu": {"b": true}, "num_args": {"i": "1"}, "epsilon": {"f": 0.0}, "padding": {"s": "VkFMSUQ="}, "fused_ops": {"list": {"s": ["Qmlhc0FkZA=="]}}}}, {"name": "StatefulPartitionedCall/model/tf__conv_17/Sigmoid", "op": "Sigmoid", "input": ["StatefulPartitionedCall/model/tf__conv_17/tf_bn_17/batch_normalization_17/FusedBatchNormV3"], "attr": {"T": {"type": "DT_FLOAT"}}}, {"name": "StatefulPartitionedCall/model/tf__conv_17/mul", "op": "Mul", "input": ["StatefulPartitionedCall/model/tf__conv_17/tf_bn_17/batch_normalization_17/FusedBatchNormV3", "StatefulPartitionedCall/model/tf__conv_17/Sigmoid"], "attr": {"T": {"type": "DT_FLOAT"}}}, {"name": "StatefulPartitionedCall/model/tf__c3_2/tf__conv_18/tf_bn_18/batch_normalization_18/FusedBatchNormV3", "op": "_FusedConv2D", "input": ["StatefulPartitionedCall/model/tf__conv_17/mul", "StatefulPartitionedCall/model/tf__c3_2/tf__conv_18/conv2d_18/Conv2D_weights", "StatefulPartitionedCall/model/tf__c3_2/tf__conv_18/conv2d_18/Conv2D_bn_offset"], "device": "/device:CPU:0", "attr": {"dilations": {"list": {"i": ["1", "1", "1", "1"]}}, "T": {"type": "DT_FLOAT"}, "data_format": {"s": "TkhXQw=="}, "strides": {"list": {"i": ["1", "1", "1", "1"]}}, "explicit_paddings": {"list": {}}, "use_cudnn_on_gpu": {"b": true}, "num_args": {"i": "1"}, "epsilon": {"f": 0.0}, "padding": {"s": "U0FNRQ=="}, "fused_ops": {"list": {"s": ["Qmlhc0FkZA=="]}}}}, {"name": "StatefulPartitionedCall/model/tf__c3_2/tf__conv_19/tf_bn_19/batch_normalization_19/FusedBatchNormV3", "op": "_FusedConv2D", "input": ["StatefulPartitionedCall/model/tf__conv_17/mul", "StatefulPartitionedCall/model/tf__c3_2/tf__conv_19/conv2d_19/Conv2D_weights", "StatefulPartitionedCall/model/tf__c3_2/tf__conv_19/conv2d_19/Conv2D_bn_offset"], "device": "/device:CPU:0", "attr": {"dilations": {"list": {"i": ["1", "1", "1", "1"]}}, "T": {"type": "DT_FLOAT"}, "strides": {"list": {"i": ["1", "1", "1", "1"]}}, "data_format": {"s": "TkhXQw=="}, "use_cudnn_on_gpu": {"b": true}, "explicit_paddings": {"list": {}}, "num_args": {"i": "1"}, "epsilon": {"f": 0.0}, "padding": {"s": "U0FNRQ=="}, "fused_ops": {"list": {"s": ["Qmlhc0FkZA=="]}}}}, {"name": "StatefulPartitionedCall/model/tf__c3_2/tf__conv_18/Sigmoid", "op": "Sigmoid", "input": ["StatefulPartitionedCall/model/tf__c3_2/tf__conv_18/tf_bn_18/batch_normalization_18/FusedBatchNormV3"], "attr": {"T": {"type": "DT_FLOAT"}}}, {"name": "StatefulPartitionedCall/model/tf__c3_2/tf__conv_19/Sigmoid", "op": "Sigmoid", "input": ["StatefulPartitionedCall/model/tf__c3_2/tf__conv_19/tf_bn_19/batch_normalization_19/FusedBatchNormV3"], "attr": {"T": {"type": "DT_FLOAT"}}}, {"name": "StatefulPartitionedCall/model/tf__c3_2/tf__conv_18/mul", "op": "Mul", "input": ["StatefulPartitionedCall/model/tf__c3_2/tf__conv_18/tf_bn_18/batch_normalization_18/FusedBatchNormV3", "StatefulPartitionedCall/model/tf__c3_2/tf__conv_18/Sigmoid"], "attr": {"T": {"type": "DT_FLOAT"}}}, {"name": "StatefulPartitionedCall/model/tf__c3_2/tf__conv_19/mul", "op": "Mul", "input": ["StatefulPartitionedCall/model/tf__c3_2/tf__conv_19/tf_bn_19/batch_normalization_19/FusedBatchNormV3", "StatefulPartitionedCall/model/tf__c3_2/tf__conv_19/Sigmoid"], "attr": {"T": {"type": "DT_FLOAT"}}}, {"name": "StatefulPartitionedCall/model/tf__c3_2/sequential_5/tf__bottleneck_4/tf__conv_21/tf_bn_21/batch_normalization_21/FusedBatchNormV3", "op": "_FusedConv2D", "input": ["StatefulPartitionedCall/model/tf__c3_2/tf__conv_18/mul", "StatefulPartitionedCall/model/tf__c3_2/sequential_5/tf__bottleneck_4/tf__conv_21/conv2d_21/Conv2D_weights", "StatefulPartitionedCall/model/tf__c3_2/sequential_5/tf__bottleneck_4/tf__conv_21/conv2d_21/Conv2D_bn_offset"], "device": "/device:CPU:0", "attr": {"strides": {"list": {"i": ["1", "1", "1", "1"]}}, "data_format": {"s": "TkhXQw=="}, "explicit_paddings": {"list": {}}, "use_cudnn_on_gpu": {"b": true}, "num_args": {"i": "1"}, "epsilon": {"f": 0.0}, "padding": {"s": "U0FNRQ=="}, "fused_ops": {"list": {"s": ["Qmlhc0FkZA=="]}}, "dilations": {"list": {"i": ["1", "1", "1", "1"]}}, "T": {"type": "DT_FLOAT"}}}, {"name": "StatefulPartitionedCall/model/tf__c3_2/sequential_5/tf__bottleneck_4/tf__conv_21/Sigmoid", "op": "Sigmoid", "input": ["StatefulPartitionedCall/model/tf__c3_2/sequential_5/tf__bottleneck_4/tf__conv_21/tf_bn_21/batch_normalization_21/FusedBatchNormV3"], "attr": {"T": {"type": "DT_FLOAT"}}}, {"name": "StatefulPartitionedCall/model/tf__c3_2/sequential_5/tf__bottleneck_4/tf__conv_21/mul", "op": "Mul", "input": ["StatefulPartitionedCall/model/tf__c3_2/sequential_5/tf__bottleneck_4/tf__conv_21/tf_bn_21/batch_normalization_21/FusedBatchNormV3", "StatefulPartitionedCall/model/tf__c3_2/sequential_5/tf__bottleneck_4/tf__conv_21/Sigmoid"], "attr": {"T": {"type": "DT_FLOAT"}}}, {"name": "StatefulPartitionedCall/model/tf__c3_2/sequential_5/tf__bottleneck_4/tf__conv_22/tf_bn_22/batch_normalization_22/FusedBatchNormV3", "op": "_FusedConv2D", "input": ["StatefulPartitionedCall/model/tf__c3_2/sequential_5/tf__bottleneck_4/tf__conv_21/mul", "StatefulPartitionedCall/model/tf__c3_2/sequential_5/tf__bottleneck_4/tf__conv_22/conv2d_22/Conv2D_weights", "StatefulPartitionedCall/model/tf__c3_2/sequential_5/tf__bottleneck_4/tf__conv_22/conv2d_22/Conv2D_bn_offset"], "device": "/device:CPU:0", "attr": {"epsilon": {"f": 0.0}, "padding": {"s": "U0FNRQ=="}, "fused_ops": {"list": {"s": ["Qmlhc0FkZA=="]}}, "dilations": {"list": {"i": ["1", "1", "1", "1"]}}, "T": {"type": "DT_FLOAT"}, "data_format": {"s": "TkhXQw=="}, "strides": {"list": {"i": ["1", "1", "1", "1"]}}, "explicit_paddings": {"list": {}}, "use_cudnn_on_gpu": {"b": true}, "num_args": {"i": "1"}}}, {"name": "StatefulPartitionedCall/model/tf__c3_2/sequential_5/tf__bottleneck_4/tf__conv_22/Sigmoid", "op": "Sigmoid", "input": ["StatefulPartitionedCall/model/tf__c3_2/sequential_5/tf__bottleneck_4/tf__conv_22/tf_bn_22/batch_normalization_22/FusedBatchNormV3"], "attr": {"T": {"type": "DT_FLOAT"}}}, {"name": "StatefulPartitionedCall/model/tf__c3_2/sequential_5/tf__bottleneck_4/tf__conv_22/mul", "op": "Mul", "input": ["StatefulPartitionedCall/model/tf__c3_2/sequential_5/tf__bottleneck_4/tf__conv_22/tf_bn_22/batch_normalization_22/FusedBatchNormV3", "StatefulPartitionedCall/model/tf__c3_2/sequential_5/tf__bottleneck_4/tf__conv_22/Sigmoid"], "attr": {"T": {"type": "DT_FLOAT"}}}, {"name": "StatefulPartitionedCall/model/tf__c3_2/sequential_5/tf__bottleneck_4/add", "op": "AddV2", "input": ["StatefulPartitionedCall/model/tf__c3_2/tf__conv_18/mul", "StatefulPartitionedCall/model/tf__c3_2/sequential_5/tf__bottleneck_4/tf__conv_22/mul"], "attr": {"T": {"type": "DT_FLOAT"}}}, {"name": "StatefulPartitionedCall/model/tf__c3_2/sequential_5/tf__bottleneck_5/tf__conv_23/tf_bn_23/batch_normalization_23/FusedBatchNormV3", "op": "_FusedConv2D", "input": ["StatefulPartitionedCall/model/tf__c3_2/sequential_5/tf__bottleneck_4/add", "StatefulPartitionedCall/model/tf__c3_2/sequential_5/tf__bottleneck_5/tf__conv_23/conv2d_23/Conv2D_weights", "StatefulPartitionedCall/model/tf__c3_2/sequential_5/tf__bottleneck_5/tf__conv_23/conv2d_23/Conv2D_bn_offset"], "device": "/device:CPU:0", "attr": {"epsilon": {"f": 0.0}, "padding": {"s": "U0FNRQ=="}, "fused_ops": {"list": {"s": ["Qmlhc0FkZA=="]}}, "dilations": {"list": {"i": ["1", "1", "1", "1"]}}, "T": {"type": "DT_FLOAT"}, "strides": {"list": {"i": ["1", "1", "1", "1"]}}, "data_format": {"s": "TkhXQw=="}, "explicit_paddings": {"list": {}}, "use_cudnn_on_gpu": {"b": true}, "num_args": {"i": "1"}}}, {"name": "StatefulPartitionedCall/model/tf__c3_2/sequential_5/tf__bottleneck_5/tf__conv_23/Sigmoid", "op": "Sigmoid", "input": ["StatefulPartitionedCall/model/tf__c3_2/sequential_5/tf__bottleneck_5/tf__conv_23/tf_bn_23/batch_normalization_23/FusedBatchNormV3"], "attr": {"T": {"type": "DT_FLOAT"}}}, {"name": "StatefulPartitionedCall/model/tf__c3_2/sequential_5/tf__bottleneck_5/tf__conv_23/mul", "op": "Mul", "input": ["StatefulPartitionedCall/model/tf__c3_2/sequential_5/tf__bottleneck_5/tf__conv_23/tf_bn_23/batch_normalization_23/FusedBatchNormV3", "StatefulPartitionedCall/model/tf__c3_2/sequential_5/tf__bottleneck_5/tf__conv_23/Sigmoid"], "attr": {"T": {"type": "DT_FLOAT"}}}, {"name": "StatefulPartitionedCall/model/tf__c3_2/sequential_5/tf__bottleneck_5/tf__conv_24/tf_bn_24/batch_normalization_24/FusedBatchNormV3", "op": "_FusedConv2D", "input": ["StatefulPartitionedCall/model/tf__c3_2/sequential_5/tf__bottleneck_5/tf__conv_23/mul", "StatefulPartitionedCall/model/tf__c3_2/sequential_5/tf__bottleneck_5/tf__conv_24/conv2d_24/Conv2D_weights", "StatefulPartitionedCall/model/tf__c3_2/sequential_5/tf__bottleneck_5/tf__conv_24/conv2d_24/Conv2D_bn_offset"], "device": "/device:CPU:0", "attr": {"dilations": {"list": {"i": ["1", "1", "1", "1"]}}, "T": {"type": "DT_FLOAT"}, "strides": {"list": {"i": ["1", "1", "1", "1"]}}, "data_format": {"s": "TkhXQw=="}, "explicit_paddings": {"list": {}}, "use_cudnn_on_gpu": {"b": true}, "num_args": {"i": "1"}, "epsilon": {"f": 0.0}, "padding": {"s": "U0FNRQ=="}, "fused_ops": {"list": {"s": ["Qmlhc0FkZA=="]}}}}, {"name": "StatefulPartitionedCall/model/tf__c3_2/sequential_5/tf__bottleneck_5/tf__conv_24/Sigmoid", "op": "Sigmoid", "input": ["StatefulPartitionedCall/model/tf__c3_2/sequential_5/tf__bottleneck_5/tf__conv_24/tf_bn_24/batch_normalization_24/FusedBatchNormV3"], "attr": {"T": {"type": "DT_FLOAT"}}}, {"name": "StatefulPartitionedCall/model/tf__c3_2/sequential_5/tf__bottleneck_5/tf__conv_24/mul", "op": "Mul", "input": ["StatefulPartitionedCall/model/tf__c3_2/sequential_5/tf__bottleneck_5/tf__conv_24/tf_bn_24/batch_normalization_24/FusedBatchNormV3", "StatefulPartitionedCall/model/tf__c3_2/sequential_5/tf__bottleneck_5/tf__conv_24/Sigmoid"], "attr": {"T": {"type": "DT_FLOAT"}}}, {"name": "StatefulPartitionedCall/model/tf__c3_2/sequential_5/tf__bottleneck_5/add", "op": "AddV2", "input": ["StatefulPartitionedCall/model/tf__c3_2/sequential_5/tf__bottleneck_4/add", "StatefulPartitionedCall/model/tf__c3_2/sequential_5/tf__bottleneck_5/tf__conv_24/mul"], "attr": {"T": {"type": "DT_FLOAT"}}}, {"name": "StatefulPartitionedCall/model/tf__c3_2/sequential_5/tf__bottleneck_6/tf__conv_25/tf_bn_25/batch_normalization_25/FusedBatchNormV3", "op": "_FusedConv2D", "input": ["StatefulPartitionedCall/model/tf__c3_2/sequential_5/tf__bottleneck_5/add", "StatefulPartitionedCall/model/tf__c3_2/sequential_5/tf__bottleneck_6/tf__conv_25/conv2d_25/Conv2D_weights", "StatefulPartitionedCall/model/tf__c3_2/sequential_5/tf__bottleneck_6/tf__conv_25/conv2d_25/Conv2D_bn_offset"], "device": "/device:CPU:0", "attr": {"fused_ops": {"list": {"s": ["Qmlhc0FkZA=="]}}, "dilations": {"list": {"i": ["1", "1", "1", "1"]}}, "T": {"type": "DT_FLOAT"}, "strides": {"list": {"i": ["1", "1", "1", "1"]}}, "data_format": {"s": "TkhXQw=="}, "explicit_paddings": {"list": {}}, "use_cudnn_on_gpu": {"b": true}, "num_args": {"i": "1"}, "epsilon": {"f": 0.0}, "padding": {"s": "U0FNRQ=="}}}, {"name": "StatefulPartitionedCall/model/tf__c3_2/sequential_5/tf__bottleneck_6/tf__conv_25/Sigmoid", "op": "Sigmoid", "input": ["StatefulPartitionedCall/model/tf__c3_2/sequential_5/tf__bottleneck_6/tf__conv_25/tf_bn_25/batch_normalization_25/FusedBatchNormV3"], "attr": {"T": {"type": "DT_FLOAT"}}}, {"name": "StatefulPartitionedCall/model/tf__c3_2/sequential_5/tf__bottleneck_6/tf__conv_25/mul", "op": "Mul", "input": ["StatefulPartitionedCall/model/tf__c3_2/sequential_5/tf__bottleneck_6/tf__conv_25/tf_bn_25/batch_normalization_25/FusedBatchNormV3", "StatefulPartitionedCall/model/tf__c3_2/sequential_5/tf__bottleneck_6/tf__conv_25/Sigmoid"], "attr": {"T": {"type": "DT_FLOAT"}}}, {"name": "StatefulPartitionedCall/model/tf__c3_2/sequential_5/tf__bottleneck_6/tf__conv_26/tf_bn_26/batch_normalization_26/FusedBatchNormV3", "op": "_FusedConv2D", "input": ["StatefulPartitionedCall/model/tf__c3_2/sequential_5/tf__bottleneck_6/tf__conv_25/mul", "StatefulPartitionedCall/model/tf__c3_2/sequential_5/tf__bottleneck_6/tf__conv_26/conv2d_26/Conv2D_weights", "StatefulPartitionedCall/model/tf__c3_2/sequential_5/tf__bottleneck_6/tf__conv_26/conv2d_26/Conv2D_bn_offset"], "device": "/device:CPU:0", "attr": {"T": {"type": "DT_FLOAT"}, "strides": {"list": {"i": ["1", "1", "1", "1"]}}, "data_format": {"s": "TkhXQw=="}, "explicit_paddings": {"list": {}}, "use_cudnn_on_gpu": {"b": true}, "num_args": {"i": "1"}, "epsilon": {"f": 0.0}, "padding": {"s": "U0FNRQ=="}, "fused_ops": {"list": {"s": ["Qmlhc0FkZA=="]}}, "dilations": {"list": {"i": ["1", "1", "1", "1"]}}}}, {"name": "StatefulPartitionedCall/model/tf__c3_2/sequential_5/tf__bottleneck_6/tf__conv_26/Sigmoid", "op": "Sigmoid", "input": ["StatefulPartitionedCall/model/tf__c3_2/sequential_5/tf__bottleneck_6/tf__conv_26/tf_bn_26/batch_normalization_26/FusedBatchNormV3"], "attr": {"T": {"type": "DT_FLOAT"}}}, {"name": "StatefulPartitionedCall/model/tf__c3_2/sequential_5/tf__bottleneck_6/tf__conv_26/mul", "op": "Mul", "input": ["StatefulPartitionedCall/model/tf__c3_2/sequential_5/tf__bottleneck_6/tf__conv_26/tf_bn_26/batch_normalization_26/FusedBatchNormV3", "StatefulPartitionedCall/model/tf__c3_2/sequential_5/tf__bottleneck_6/tf__conv_26/Sigmoid"], "attr": {"T": {"type": "DT_FLOAT"}}}, {"name": "StatefulPartitionedCall/model/tf__c3_2/sequential_5/tf__bottleneck_6/add", "op": "AddV2", "input": ["StatefulPartitionedCall/model/tf__c3_2/sequential_5/tf__bottleneck_5/add", "StatefulPartitionedCall/model/tf__c3_2/sequential_5/tf__bottleneck_6/tf__conv_26/mul"], "attr": {"T": {"type": "DT_FLOAT"}}}, {"name": "StatefulPartitionedCall/model/tf__c3_2/concat", "op": "ConcatV2", "input": ["StatefulPartitionedCall/model/tf__c3_2/sequential_5/tf__bottleneck_6/add", "StatefulPartitionedCall/model/tf__c3_2/tf__conv_19/mul", "StatefulPartitionedCall/model/tf__c3_2/concat/axis"], "attr": {"Tidx": {"type": "DT_INT32"}, "T": {"type": "DT_FLOAT"}, "N": {"i": "2"}}}, {"name": "StatefulPartitionedCall/model/tf__c3_2/tf__conv_20/tf_bn_20/batch_normalization_20/FusedBatchNormV3", "op": "_FusedConv2D", "input": ["StatefulPartitionedCall/model/tf__c3_2/concat", "StatefulPartitionedCall/model/tf__c3_2/tf__conv_20/conv2d_20/Conv2D_weights", "StatefulPartitionedCall/model/tf__c3_2/tf__conv_20/conv2d_20/Conv2D_bn_offset"], "device": "/device:CPU:0", "attr": {"dilations": {"list": {"i": ["1", "1", "1", "1"]}}, "T": {"type": "DT_FLOAT"}, "data_format": {"s": "TkhXQw=="}, "strides": {"list": {"i": ["1", "1", "1", "1"]}}, "explicit_paddings": {"list": {}}, "use_cudnn_on_gpu": {"b": true}, "num_args": {"i": "1"}, "epsilon": {"f": 0.0}, "padding": {"s": "U0FNRQ=="}, "fused_ops": {"list": {"s": ["Qmlhc0FkZA=="]}}}}, {"name": "StatefulPartitionedCall/model/tf__c3_2/tf__conv_20/Sigmoid", "op": "Sigmoid", "input": ["StatefulPartitionedCall/model/tf__c3_2/tf__conv_20/tf_bn_20/batch_normalization_20/FusedBatchNormV3"], "attr": {"T": {"type": "DT_FLOAT"}}}, {"name": "StatefulPartitionedCall/model/tf__c3_2/tf__conv_20/mul", "op": "Mul", "input": ["StatefulPartitionedCall/model/tf__c3_2/tf__conv_20/tf_bn_20/batch_normalization_20/FusedBatchNormV3", "StatefulPartitionedCall/model/tf__c3_2/tf__conv_20/Sigmoid"], "attr": {"T": {"type": "DT_FLOAT"}}}, {"name": "StatefulPartitionedCall/model/tf__conv_27/sequential_6/tf__pad_3/Pad", "op": "Pad", "input": ["StatefulPartitionedCall/model/tf__c3_2/tf__conv_20/mul", "unknown_137"], "attr": {"T": {"type": "DT_FLOAT"}, "Tpaddings": {"type": "DT_INT32"}}}, {"name": "StatefulPartitionedCall/model/tf__conv_27/tf_bn_27/batch_normalization_27/FusedBatchNormV3", "op": "_FusedConv2D", "input": ["StatefulPartitionedCall/model/tf__conv_27/sequential_6/tf__pad_3/Pad", "StatefulPartitionedCall/model/tf__conv_27/sequential_6/conv2d_27/Conv2D_weights", "StatefulPartitionedCall/model/tf__conv_27/sequential_6/conv2d_27/Conv2D_bn_offset"], "device": "/device:CPU:0", "attr": {"num_args": {"i": "1"}, "epsilon": {"f": 0.0}, "padding": {"s": "VkFMSUQ="}, "fused_ops": {"list": {"s": ["Qmlhc0FkZA=="]}}, "dilations": {"list": {"i": ["1", "1", "1", "1"]}}, "T": {"type": "DT_FLOAT"}, "data_format": {"s": "TkhXQw=="}, "strides": {"list": {"i": ["1", "2", "2", "1"]}}, "use_cudnn_on_gpu": {"b": true}, "explicit_paddings": {"list": {}}}}, {"name": "StatefulPartitionedCall/model/tf__conv_27/Sigmoid", "op": "Sigmoid", "input": ["StatefulPartitionedCall/model/tf__conv_27/tf_bn_27/batch_normalization_27/FusedBatchNormV3"], "attr": {"T": {"type": "DT_FLOAT"}}}, {"name": "StatefulPartitionedCall/model/tf__conv_27/mul", "op": "Mul", "input": ["StatefulPartitionedCall/model/tf__conv_27/tf_bn_27/batch_normalization_27/FusedBatchNormV3", "StatefulPartitionedCall/model/tf__conv_27/Sigmoid"], "attr": {"T": {"type": "DT_FLOAT"}}}, {"name": "StatefulPartitionedCall/model/tf_spp/tf__conv_28/tf_bn_28/batch_normalization_28/FusedBatchNormV3", "op": "_FusedConv2D", "input": ["StatefulPartitionedCall/model/tf__conv_27/mul", "StatefulPartitionedCall/model/tf_spp/tf__conv_28/conv2d_28/Conv2D_weights", "StatefulPartitionedCall/model/tf_spp/tf__conv_28/conv2d_28/Conv2D_bn_offset"], "device": "/device:CPU:0", "attr": {"explicit_paddings": {"list": {}}, "use_cudnn_on_gpu": {"b": true}, "num_args": {"i": "1"}, "epsilon": {"f": 0.0}, "padding": {"s": "U0FNRQ=="}, "fused_ops": {"list": {"s": ["Qmlhc0FkZA=="]}}, "dilations": {"list": {"i": ["1", "1", "1", "1"]}}, "T": {"type": "DT_FLOAT"}, "strides": {"list": {"i": ["1", "1", "1", "1"]}}, "data_format": {"s": "TkhXQw=="}}}, {"name": "StatefulPartitionedCall/model/tf_spp/tf__conv_28/Sigmoid", "op": "Sigmoid", "input": ["StatefulPartitionedCall/model/tf_spp/tf__conv_28/tf_bn_28/batch_normalization_28/FusedBatchNormV3"], "attr": {"T": {"type": "DT_FLOAT"}}}, {"name": "StatefulPartitionedCall/model/tf_spp/tf__conv_28/mul", "op": "Mul", "input": ["StatefulPartitionedCall/model/tf_spp/tf__conv_28/tf_bn_28/batch_normalization_28/FusedBatchNormV3", "StatefulPartitionedCall/model/tf_spp/tf__conv_28/Sigmoid"], "attr": {"T": {"type": "DT_FLOAT"}}}, {"name": "StatefulPartitionedCall/model/tf_spp/max_pooling2d/MaxPool", "op": "MaxPool", "input": ["StatefulPartitionedCall/model/tf_spp/tf__conv_28/mul"], "attr": {"strides": {"list": {"i": ["1", "1", "1", "1"]}}, "data_format": {"s": "TkhXQw=="}, "explicit_paddings": {"list": {}}, "ksize": {"list": {"i": ["1", "5", "5", "1"]}}, "padding": {"s": "U0FNRQ=="}, "T": {"type": "DT_FLOAT"}}}, {"name": "StatefulPartitionedCall/model/tf_spp/max_pooling2d_1/MaxPool", "op": "MaxPool", "input": ["StatefulPartitionedCall/model/tf_spp/tf__conv_28/mul"], "attr": {"T": {"type": "DT_FLOAT"}, "strides": {"list": {"i": ["1", "1", "1", "1"]}}, "data_format": {"s": "TkhXQw=="}, "explicit_paddings": {"list": {}}, "ksize": {"list": {"i": ["1", "9", "9", "1"]}}, "padding": {"s": "U0FNRQ=="}}}, {"name": "StatefulPartitionedCall/model/tf_spp/max_pooling2d_2/MaxPool", "op": "MaxPool", "input": ["StatefulPartitionedCall/model/tf_spp/tf__conv_28/mul"], "attr": {"strides": {"list": {"i": ["1", "1", "1", "1"]}}, "data_format": {"s": "TkhXQw=="}, "explicit_paddings": {"list": {}}, "ksize": {"list": {"i": ["1", "13", "13", "1"]}}, "padding": {"s": "U0FNRQ=="}, "T": {"type": "DT_FLOAT"}}}, {"name": "StatefulPartitionedCall/model/tf_spp/concat", "op": "ConcatV2", "input": ["StatefulPartitionedCall/model/tf_spp/tf__conv_28/mul", "StatefulPartitionedCall/model/tf_spp/max_pooling2d/MaxPool", "StatefulPartitionedCall/model/tf_spp/max_pooling2d_1/MaxPool", "StatefulPartitionedCall/model/tf_spp/max_pooling2d_2/MaxPool", "StatefulPartitionedCall/model/tf_spp/concat/axis"], "attr": {"Tidx": {"type": "DT_INT32"}, "T": {"type": "DT_FLOAT"}, "N": {"i": "4"}}}, {"name": "StatefulPartitionedCall/model/tf_spp/tf__conv_29/tf_bn_29/batch_normalization_29/FusedBatchNormV3", "op": "_FusedConv2D", "input": ["StatefulPartitionedCall/model/tf_spp/concat", "StatefulPartitionedCall/model/tf_spp/tf__conv_29/conv2d_29/Conv2D_weights", "StatefulPartitionedCall/model/tf_spp/tf__conv_29/conv2d_29/Conv2D_bn_offset"], "device": "/device:CPU:0", "attr": {"strides": {"list": {"i": ["1", "1", "1", "1"]}}, "data_format": {"s": "TkhXQw=="}, "explicit_paddings": {"list": {}}, "use_cudnn_on_gpu": {"b": true}, "num_args": {"i": "1"}, "epsilon": {"f": 0.0}, "padding": {"s": "U0FNRQ=="}, "fused_ops": {"list": {"s": ["Qmlhc0FkZA=="]}}, "dilations": {"list": {"i": ["1", "1", "1", "1"]}}, "T": {"type": "DT_FLOAT"}}}, {"name": "StatefulPartitionedCall/model/tf_spp/tf__conv_29/Sigmoid", "op": "Sigmoid", "input": ["StatefulPartitionedCall/model/tf_spp/tf__conv_29/tf_bn_29/batch_normalization_29/FusedBatchNormV3"], "attr": {"T": {"type": "DT_FLOAT"}}}, {"name": "StatefulPartitionedCall/model/tf_spp/tf__conv_29/mul", "op": "Mul", "input": ["StatefulPartitionedCall/model/tf_spp/tf__conv_29/tf_bn_29/batch_normalization_29/FusedBatchNormV3", "StatefulPartitionedCall/model/tf_spp/tf__conv_29/Sigmoid"], "attr": {"T": {"type": "DT_FLOAT"}}}, {"name": "StatefulPartitionedCall/model/tf__c3_3/tf__conv_30/tf_bn_30/batch_normalization_30/FusedBatchNormV3", "op": "_FusedConv2D", "input": ["StatefulPartitionedCall/model/tf_spp/tf__conv_29/mul", "StatefulPartitionedCall/model/tf__c3_3/tf__conv_30/conv2d_30/Conv2D_weights", "StatefulPartitionedCall/model/tf__c3_3/tf__conv_30/conv2d_30/Conv2D_bn_offset"], "device": "/device:CPU:0", "attr": {"dilations": {"list": {"i": ["1", "1", "1", "1"]}}, "T": {"type": "DT_FLOAT"}, "strides": {"list": {"i": ["1", "1", "1", "1"]}}, "data_format": {"s": "TkhXQw=="}, "use_cudnn_on_gpu": {"b": true}, "explicit_paddings": {"list": {}}, "num_args": {"i": "1"}, "epsilon": {"f": 0.0}, "padding": {"s": "U0FNRQ=="}, "fused_ops": {"list": {"s": ["Qmlhc0FkZA=="]}}}}, {"name": "StatefulPartitionedCall/model/tf__c3_3/tf__conv_31/tf_bn_31/batch_normalization_31/FusedBatchNormV3", "op": "_FusedConv2D", "input": ["StatefulPartitionedCall/model/tf_spp/tf__conv_29/mul", "StatefulPartitionedCall/model/tf__c3_3/tf__conv_31/conv2d_31/Conv2D_weights", "StatefulPartitionedCall/model/tf__c3_3/tf__conv_31/conv2d_31/Conv2D_bn_offset"], "device": "/device:CPU:0", "attr": {"T": {"type": "DT_FLOAT"}, "strides": {"list": {"i": ["1", "1", "1", "1"]}}, "data_format": {"s": "TkhXQw=="}, "explicit_paddings": {"list": {}}, "use_cudnn_on_gpu": {"b": true}, "num_args": {"i": "1"}, "epsilon": {"f": 0.0}, "padding": {"s": "U0FNRQ=="}, "fused_ops": {"list": {"s": ["Qmlhc0FkZA=="]}}, "dilations": {"list": {"i": ["1", "1", "1", "1"]}}}}, {"name": "StatefulPartitionedCall/model/tf__c3_3/tf__conv_30/Sigmoid", "op": "Sigmoid", "input": ["StatefulPartitionedCall/model/tf__c3_3/tf__conv_30/tf_bn_30/batch_normalization_30/FusedBatchNormV3"], "attr": {"T": {"type": "DT_FLOAT"}}}, {"name": "StatefulPartitionedCall/model/tf__c3_3/tf__conv_31/Sigmoid", "op": "Sigmoid", "input": ["StatefulPartitionedCall/model/tf__c3_3/tf__conv_31/tf_bn_31/batch_normalization_31/FusedBatchNormV3"], "attr": {"T": {"type": "DT_FLOAT"}}}, {"name": "StatefulPartitionedCall/model/tf__c3_3/tf__conv_30/mul", "op": "Mul", "input": ["StatefulPartitionedCall/model/tf__c3_3/tf__conv_30/tf_bn_30/batch_normalization_30/FusedBatchNormV3", "StatefulPartitionedCall/model/tf__c3_3/tf__conv_30/Sigmoid"], "attr": {"T": {"type": "DT_FLOAT"}}}, {"name": "StatefulPartitionedCall/model/tf__c3_3/tf__conv_31/mul", "op": "Mul", "input": ["StatefulPartitionedCall/model/tf__c3_3/tf__conv_31/tf_bn_31/batch_normalization_31/FusedBatchNormV3", "StatefulPartitionedCall/model/tf__c3_3/tf__conv_31/Sigmoid"], "attr": {"T": {"type": "DT_FLOAT"}}}, {"name": "StatefulPartitionedCall/model/tf__c3_3/sequential_7/tf__bottleneck_7/tf__conv_33/tf_bn_33/batch_normalization_33/FusedBatchNormV3", "op": "_FusedConv2D", "input": ["StatefulPartitionedCall/model/tf__c3_3/tf__conv_30/mul", "StatefulPartitionedCall/model/tf__c3_3/sequential_7/tf__bottleneck_7/tf__conv_33/conv2d_33/Conv2D_weights", "StatefulPartitionedCall/model/tf__c3_3/sequential_7/tf__bottleneck_7/tf__conv_33/conv2d_33/Conv2D_bn_offset"], "device": "/device:CPU:0", "attr": {"epsilon": {"f": 0.0}, "padding": {"s": "U0FNRQ=="}, "fused_ops": {"list": {"s": ["Qmlhc0FkZA=="]}}, "dilations": {"list": {"i": ["1", "1", "1", "1"]}}, "T": {"type": "DT_FLOAT"}, "strides": {"list": {"i": ["1", "1", "1", "1"]}}, "data_format": {"s": "TkhXQw=="}, "explicit_paddings": {"list": {}}, "use_cudnn_on_gpu": {"b": true}, "num_args": {"i": "1"}}}, {"name": "StatefulPartitionedCall/model/tf__c3_3/sequential_7/tf__bottleneck_7/tf__conv_33/Sigmoid", "op": "Sigmoid", "input": ["StatefulPartitionedCall/model/tf__c3_3/sequential_7/tf__bottleneck_7/tf__conv_33/tf_bn_33/batch_normalization_33/FusedBatchNormV3"], "attr": {"T": {"type": "DT_FLOAT"}}}, {"name": "StatefulPartitionedCall/model/tf__c3_3/sequential_7/tf__bottleneck_7/tf__conv_33/mul", "op": "Mul", "input": ["StatefulPartitionedCall/model/tf__c3_3/sequential_7/tf__bottleneck_7/tf__conv_33/tf_bn_33/batch_normalization_33/FusedBatchNormV3", "StatefulPartitionedCall/model/tf__c3_3/sequential_7/tf__bottleneck_7/tf__conv_33/Sigmoid"], "attr": {"T": {"type": "DT_FLOAT"}}}, {"name": "StatefulPartitionedCall/model/tf__c3_3/sequential_7/tf__bottleneck_7/tf__conv_34/tf_bn_34/batch_normalization_34/FusedBatchNormV3", "op": "_FusedConv2D", "input": ["StatefulPartitionedCall/model/tf__c3_3/sequential_7/tf__bottleneck_7/tf__conv_33/mul", "StatefulPartitionedCall/model/tf__c3_3/sequential_7/tf__bottleneck_7/tf__conv_34/conv2d_34/Conv2D_weights", "StatefulPartitionedCall/model/tf__c3_3/sequential_7/tf__bottleneck_7/tf__conv_34/conv2d_34/Conv2D_bn_offset"], "device": "/device:CPU:0", "attr": {"T": {"type": "DT_FLOAT"}, "data_format": {"s": "TkhXQw=="}, "strides": {"list": {"i": ["1", "1", "1", "1"]}}, "explicit_paddings": {"list": {}}, "use_cudnn_on_gpu": {"b": true}, "num_args": {"i": "1"}, "epsilon": {"f": 0.0}, "padding": {"s": "U0FNRQ=="}, "fused_ops": {"list": {"s": ["Qmlhc0FkZA=="]}}, "dilations": {"list": {"i": ["1", "1", "1", "1"]}}}}, {"name": "StatefulPartitionedCall/model/tf__c3_3/sequential_7/tf__bottleneck_7/tf__conv_34/Sigmoid", "op": "Sigmoid", "input": ["StatefulPartitionedCall/model/tf__c3_3/sequential_7/tf__bottleneck_7/tf__conv_34/tf_bn_34/batch_normalization_34/FusedBatchNormV3"], "attr": {"T": {"type": "DT_FLOAT"}}}, {"name": "StatefulPartitionedCall/model/tf__c3_3/sequential_7/tf__bottleneck_7/tf__conv_34/mul", "op": "Mul", "input": ["StatefulPartitionedCall/model/tf__c3_3/sequential_7/tf__bottleneck_7/tf__conv_34/tf_bn_34/batch_normalization_34/FusedBatchNormV3", "StatefulPartitionedCall/model/tf__c3_3/sequential_7/tf__bottleneck_7/tf__conv_34/Sigmoid"], "attr": {"T": {"type": "DT_FLOAT"}}}, {"name": "StatefulPartitionedCall/model/tf__c3_3/concat", "op": "ConcatV2", "input": ["StatefulPartitionedCall/model/tf__c3_3/sequential_7/tf__bottleneck_7/tf__conv_34/mul", "StatefulPartitionedCall/model/tf__c3_3/tf__conv_31/mul", "StatefulPartitionedCall/model/tf__c3_3/concat/axis"], "attr": {"Tidx": {"type": "DT_INT32"}, "T": {"type": "DT_FLOAT"}, "N": {"i": "2"}}}, {"name": "StatefulPartitionedCall/model/tf__c3_3/tf__conv_32/tf_bn_32/batch_normalization_32/FusedBatchNormV3", "op": "_FusedConv2D", "input": ["StatefulPartitionedCall/model/tf__c3_3/concat", "StatefulPartitionedCall/model/tf__c3_3/tf__conv_32/conv2d_32/Conv2D_weights", "StatefulPartitionedCall/model/tf__c3_3/tf__conv_32/conv2d_32/Conv2D_bn_offset"], "device": "/device:CPU:0", "attr": {"dilations": {"list": {"i": ["1", "1", "1", "1"]}}, "T": {"type": "DT_FLOAT"}, "data_format": {"s": "TkhXQw=="}, "strides": {"list": {"i": ["1", "1", "1", "1"]}}, "use_cudnn_on_gpu": {"b": true}, "explicit_paddings": {"list": {}}, "num_args": {"i": "1"}, "epsilon": {"f": 0.0}, "padding": {"s": "U0FNRQ=="}, "fused_ops": {"list": {"s": ["Qmlhc0FkZA=="]}}}}, {"name": "StatefulPartitionedCall/model/tf__c3_3/tf__conv_32/Sigmoid", "op": "Sigmoid", "input": ["StatefulPartitionedCall/model/tf__c3_3/tf__conv_32/tf_bn_32/batch_normalization_32/FusedBatchNormV3"], "attr": {"T": {"type": "DT_FLOAT"}}}, {"name": "StatefulPartitionedCall/model/tf__c3_3/tf__conv_32/mul", "op": "Mul", "input": ["StatefulPartitionedCall/model/tf__c3_3/tf__conv_32/tf_bn_32/batch_normalization_32/FusedBatchNormV3", "StatefulPartitionedCall/model/tf__c3_3/tf__conv_32/Sigmoid"], "attr": {"T": {"type": "DT_FLOAT"}}}, {"name": "StatefulPartitionedCall/model/tf__conv_35/tf_bn_35/batch_normalization_35/FusedBatchNormV3", "op": "_FusedConv2D", "input": ["StatefulPartitionedCall/model/tf__c3_3/tf__conv_32/mul", "StatefulPartitionedCall/model/tf__conv_35/conv2d_35/Conv2D_weights", "StatefulPartitionedCall/model/tf__conv_35/conv2d_35/Conv2D_bn_offset"], "device": "/device:CPU:0", "attr": {"epsilon": {"f": 0.0}, "padding": {"s": "U0FNRQ=="}, "fused_ops": {"list": {"s": ["Qmlhc0FkZA=="]}}, "dilations": {"list": {"i": ["1", "1", "1", "1"]}}, "T": {"type": "DT_FLOAT"}, "strides": {"list": {"i": ["1", "1", "1", "1"]}}, "data_format": {"s": "TkhXQw=="}, "use_cudnn_on_gpu": {"b": true}, "explicit_paddings": {"list": {}}, "num_args": {"i": "1"}}}, {"name": "StatefulPartitionedCall/model/tf__conv_35/Sigmoid", "op": "Sigmoid", "input": ["StatefulPartitionedCall/model/tf__conv_35/tf_bn_35/batch_normalization_35/FusedBatchNormV3"], "attr": {"T": {"type": "DT_FLOAT"}}}, {"name": "StatefulPartitionedCall/model/tf__conv_35/mul", "op": "Mul", "input": ["StatefulPartitionedCall/model/tf__conv_35/tf_bn_35/batch_normalization_35/FusedBatchNormV3", "StatefulPartitionedCall/model/tf__conv_35/Sigmoid"], "attr": {"T": {"type": "DT_FLOAT"}}}, {"name": "StatefulPartitionedCall/model/tf__upsample/resize/ResizeNearestNeighbor", "op": "ResizeNearestNeighbor", "input": ["StatefulPartitionedCall/model/tf__conv_35/mul", "StatefulPartitionedCall/model/tf__upsample/resize/size"], "attr": {"half_pixel_centers": {"b": true}, "T": {"type": "DT_FLOAT"}, "align_corners": {"b": false}}}, {"name": "StatefulPartitionedCall/model/tf__concat/concat", "op": "ConcatV2", "input": ["StatefulPartitionedCall/model/tf__upsample/resize/ResizeNearestNeighbor", "StatefulPartitionedCall/model/tf__c3_2/tf__conv_20/mul", "StatefulPartitionedCall/model/tf__concat/concat/axis"], "attr": {"N": {"i": "2"}, "Tidx": {"type": "DT_INT32"}, "T": {"type": "DT_FLOAT"}}}, {"name": "StatefulPartitionedCall/model/tf__c3_4/tf__conv_36/tf_bn_36/batch_normalization_36/FusedBatchNormV3", "op": "_FusedConv2D", "input": ["StatefulPartitionedCall/model/tf__concat/concat", "StatefulPartitionedCall/model/tf__c3_4/tf__conv_36/conv2d_36/Conv2D_weights", "StatefulPartitionedCall/model/tf__c3_4/tf__conv_36/conv2d_36/Conv2D_bn_offset"], "device": "/device:CPU:0", "attr": {"dilations": {"list": {"i": ["1", "1", "1", "1"]}}, "T": {"type": "DT_FLOAT"}, "strides": {"list": {"i": ["1", "1", "1", "1"]}}, "data_format": {"s": "TkhXQw=="}, "explicit_paddings": {"list": {}}, "use_cudnn_on_gpu": {"b": true}, "num_args": {"i": "1"}, "epsilon": {"f": 0.0}, "padding": {"s": "U0FNRQ=="}, "fused_ops": {"list": {"s": ["Qmlhc0FkZA=="]}}}}, {"name": "StatefulPartitionedCall/model/tf__c3_4/tf__conv_37/tf_bn_37/batch_normalization_37/FusedBatchNormV3", "op": "_FusedConv2D", "input": ["StatefulPartitionedCall/model/tf__concat/concat", "StatefulPartitionedCall/model/tf__c3_4/tf__conv_37/conv2d_37/Conv2D_weights", "StatefulPartitionedCall/model/tf__c3_4/tf__conv_37/conv2d_37/Conv2D_bn_offset"], "device": "/device:CPU:0", "attr": {"epsilon": {"f": 0.0}, "padding": {"s": "U0FNRQ=="}, "fused_ops": {"list": {"s": ["Qmlhc0FkZA=="]}}, "dilations": {"list": {"i": ["1", "1", "1", "1"]}}, "T": {"type": "DT_FLOAT"}, "data_format": {"s": "TkhXQw=="}, "strides": {"list": {"i": ["1", "1", "1", "1"]}}, "explicit_paddings": {"list": {}}, "use_cudnn_on_gpu": {"b": true}, "num_args": {"i": "1"}}}, {"name": "StatefulPartitionedCall/model/tf__c3_4/tf__conv_36/Sigmoid", "op": "Sigmoid", "input": ["StatefulPartitionedCall/model/tf__c3_4/tf__conv_36/tf_bn_36/batch_normalization_36/FusedBatchNormV3"], "attr": {"T": {"type": "DT_FLOAT"}}}, {"name": "StatefulPartitionedCall/model/tf__c3_4/tf__conv_37/Sigmoid", "op": "Sigmoid", "input": ["StatefulPartitionedCall/model/tf__c3_4/tf__conv_37/tf_bn_37/batch_normalization_37/FusedBatchNormV3"], "attr": {"T": {"type": "DT_FLOAT"}}}, {"name": "StatefulPartitionedCall/model/tf__c3_4/tf__conv_36/mul", "op": "Mul", "input": ["StatefulPartitionedCall/model/tf__c3_4/tf__conv_36/tf_bn_36/batch_normalization_36/FusedBatchNormV3", "StatefulPartitionedCall/model/tf__c3_4/tf__conv_36/Sigmoid"], "attr": {"T": {"type": "DT_FLOAT"}}}, {"name": "StatefulPartitionedCall/model/tf__c3_4/tf__conv_37/mul", "op": "Mul", "input": ["StatefulPartitionedCall/model/tf__c3_4/tf__conv_37/tf_bn_37/batch_normalization_37/FusedBatchNormV3", "StatefulPartitionedCall/model/tf__c3_4/tf__conv_37/Sigmoid"], "attr": {"T": {"type": "DT_FLOAT"}}}, {"name": "StatefulPartitionedCall/model/tf__c3_4/sequential_8/tf__bottleneck_8/tf__conv_39/tf_bn_39/batch_normalization_39/FusedBatchNormV3", "op": "_FusedConv2D", "input": ["StatefulPartitionedCall/model/tf__c3_4/tf__conv_36/mul", "StatefulPartitionedCall/model/tf__c3_4/sequential_8/tf__bottleneck_8/tf__conv_39/conv2d_39/Conv2D_weights", "StatefulPartitionedCall/model/tf__c3_4/sequential_8/tf__bottleneck_8/tf__conv_39/conv2d_39/Conv2D_bn_offset"], "device": "/device:CPU:0", "attr": {"dilations": {"list": {"i": ["1", "1", "1", "1"]}}, "T": {"type": "DT_FLOAT"}, "data_format": {"s": "TkhXQw=="}, "strides": {"list": {"i": ["1", "1", "1", "1"]}}, "explicit_paddings": {"list": {}}, "use_cudnn_on_gpu": {"b": true}, "num_args": {"i": "1"}, "epsilon": {"f": 0.0}, "padding": {"s": "U0FNRQ=="}, "fused_ops": {"list": {"s": ["Qmlhc0FkZA=="]}}}}, {"name": "StatefulPartitionedCall/model/tf__c3_4/sequential_8/tf__bottleneck_8/tf__conv_39/Sigmoid", "op": "Sigmoid", "input": ["StatefulPartitionedCall/model/tf__c3_4/sequential_8/tf__bottleneck_8/tf__conv_39/tf_bn_39/batch_normalization_39/FusedBatchNormV3"], "attr": {"T": {"type": "DT_FLOAT"}}}, {"name": "StatefulPartitionedCall/model/tf__c3_4/sequential_8/tf__bottleneck_8/tf__conv_39/mul", "op": "Mul", "input": ["StatefulPartitionedCall/model/tf__c3_4/sequential_8/tf__bottleneck_8/tf__conv_39/tf_bn_39/batch_normalization_39/FusedBatchNormV3", "StatefulPartitionedCall/model/tf__c3_4/sequential_8/tf__bottleneck_8/tf__conv_39/Sigmoid"], "attr": {"T": {"type": "DT_FLOAT"}}}, {"name": "StatefulPartitionedCall/model/tf__c3_4/sequential_8/tf__bottleneck_8/tf__conv_40/tf_bn_40/batch_normalization_40/FusedBatchNormV3", "op": "_FusedConv2D", "input": ["StatefulPartitionedCall/model/tf__c3_4/sequential_8/tf__bottleneck_8/tf__conv_39/mul", "StatefulPartitionedCall/model/tf__c3_4/sequential_8/tf__bottleneck_8/tf__conv_40/conv2d_40/Conv2D_weights", "StatefulPartitionedCall/model/tf__c3_4/sequential_8/tf__bottleneck_8/tf__conv_40/conv2d_40/Conv2D_bn_offset"], "device": "/device:CPU:0", "attr": {"fused_ops": {"list": {"s": ["Qmlhc0FkZA=="]}}, "dilations": {"list": {"i": ["1", "1", "1", "1"]}}, "T": {"type": "DT_FLOAT"}, "strides": {"list": {"i": ["1", "1", "1", "1"]}}, "data_format": {"s": "TkhXQw=="}, "explicit_paddings": {"list": {}}, "use_cudnn_on_gpu": {"b": true}, "num_args": {"i": "1"}, "epsilon": {"f": 0.0}, "padding": {"s": "U0FNRQ=="}}}, {"name": "StatefulPartitionedCall/model/tf__c3_4/sequential_8/tf__bottleneck_8/tf__conv_40/Sigmoid", "op": "Sigmoid", "input": ["StatefulPartitionedCall/model/tf__c3_4/sequential_8/tf__bottleneck_8/tf__conv_40/tf_bn_40/batch_normalization_40/FusedBatchNormV3"], "attr": {"T": {"type": "DT_FLOAT"}}}, {"name": "StatefulPartitionedCall/model/tf__c3_4/sequential_8/tf__bottleneck_8/tf__conv_40/mul", "op": "Mul", "input": ["StatefulPartitionedCall/model/tf__c3_4/sequential_8/tf__bottleneck_8/tf__conv_40/tf_bn_40/batch_normalization_40/FusedBatchNormV3", "StatefulPartitionedCall/model/tf__c3_4/sequential_8/tf__bottleneck_8/tf__conv_40/Sigmoid"], "attr": {"T": {"type": "DT_FLOAT"}}}, {"name": "StatefulPartitionedCall/model/tf__c3_4/concat", "op": "ConcatV2", "input": ["StatefulPartitionedCall/model/tf__c3_4/sequential_8/tf__bottleneck_8/tf__conv_40/mul", "StatefulPartitionedCall/model/tf__c3_4/tf__conv_37/mul", "StatefulPartitionedCall/model/tf__c3_4/concat/axis"], "attr": {"T": {"type": "DT_FLOAT"}, "N": {"i": "2"}, "Tidx": {"type": "DT_INT32"}}}, {"name": "StatefulPartitionedCall/model/tf__c3_4/tf__conv_38/tf_bn_38/batch_normalization_38/FusedBatchNormV3", "op": "_FusedConv2D", "input": ["StatefulPartitionedCall/model/tf__c3_4/concat", "StatefulPartitionedCall/model/tf__c3_4/tf__conv_38/conv2d_38/Conv2D_weights", "StatefulPartitionedCall/model/tf__c3_4/tf__conv_38/conv2d_38/Conv2D_bn_offset"], "device": "/device:CPU:0", "attr": {"explicit_paddings": {"list": {}}, "use_cudnn_on_gpu": {"b": true}, "num_args": {"i": "1"}, "epsilon": {"f": 0.0}, "padding": {"s": "U0FNRQ=="}, "fused_ops": {"list": {"s": ["Qmlhc0FkZA=="]}}, "dilations": {"list": {"i": ["1", "1", "1", "1"]}}, "T": {"type": "DT_FLOAT"}, "strides": {"list": {"i": ["1", "1", "1", "1"]}}, "data_format": {"s": "TkhXQw=="}}}, {"name": "StatefulPartitionedCall/model/tf__c3_4/tf__conv_38/Sigmoid", "op": "Sigmoid", "input": ["StatefulPartitionedCall/model/tf__c3_4/tf__conv_38/tf_bn_38/batch_normalization_38/FusedBatchNormV3"], "attr": {"T": {"type": "DT_FLOAT"}}}, {"name": "StatefulPartitionedCall/model/tf__c3_4/tf__conv_38/mul", "op": "Mul", "input": ["StatefulPartitionedCall/model/tf__c3_4/tf__conv_38/tf_bn_38/batch_normalization_38/FusedBatchNormV3", "StatefulPartitionedCall/model/tf__c3_4/tf__conv_38/Sigmoid"], "attr": {"T": {"type": "DT_FLOAT"}}}, {"name": "StatefulPartitionedCall/model/tf__conv_41/tf_bn_41/batch_normalization_41/FusedBatchNormV3", "op": "_FusedConv2D", "input": ["StatefulPartitionedCall/model/tf__c3_4/tf__conv_38/mul", "StatefulPartitionedCall/model/tf__conv_41/conv2d_41/Conv2D_weights", "StatefulPartitionedCall/model/tf__conv_41/conv2d_41/Conv2D_bn_offset"], "device": "/device:CPU:0", "attr": {"strides": {"list": {"i": ["1", "1", "1", "1"]}}, "data_format": {"s": "TkhXQw=="}, "use_cudnn_on_gpu": {"b": true}, "explicit_paddings": {"list": {}}, "num_args": {"i": "1"}, "epsilon": {"f": 0.0}, "padding": {"s": "U0FNRQ=="}, "fused_ops": {"list": {"s": ["Qmlhc0FkZA=="]}}, "dilations": {"list": {"i": ["1", "1", "1", "1"]}}, "T": {"type": "DT_FLOAT"}}}, {"name": "StatefulPartitionedCall/model/tf__conv_41/Sigmoid", "op": "Sigmoid", "input": ["StatefulPartitionedCall/model/tf__conv_41/tf_bn_41/batch_normalization_41/FusedBatchNormV3"], "attr": {"T": {"type": "DT_FLOAT"}}}, {"name": "StatefulPartitionedCall/model/tf__conv_41/mul", "op": "Mul", "input": ["StatefulPartitionedCall/model/tf__conv_41/tf_bn_41/batch_normalization_41/FusedBatchNormV3", "StatefulPartitionedCall/model/tf__conv_41/Sigmoid"], "attr": {"T": {"type": "DT_FLOAT"}}}, {"name": "StatefulPartitionedCall/model/tf__upsample_1/resize/ResizeNearestNeighbor", "op": "ResizeNearestNeighbor", "input": ["StatefulPartitionedCall/model/tf__conv_41/mul", "StatefulPartitionedCall/model/tf__upsample_1/resize/size"], "attr": {"align_corners": {"b": false}, "half_pixel_centers": {"b": true}, "T": {"type": "DT_FLOAT"}}}, {"name": "StatefulPartitionedCall/model/tf__concat_1/concat", "op": "ConcatV2", "input": ["StatefulPartitionedCall/model/tf__upsample_1/resize/ResizeNearestNeighbor", "StatefulPartitionedCall/model/tf__c3_1/tf__conv_10/mul", "StatefulPartitionedCall/model/tf__concat_1/concat/axis"], "attr": {"N": {"i": "2"}, "Tidx": {"type": "DT_INT32"}, "T": {"type": "DT_FLOAT"}}}, {"name": "StatefulPartitionedCall/model/tf__c3_5/tf__conv_42/tf_bn_42/batch_normalization_42/FusedBatchNormV3", "op": "_FusedConv2D", "input": ["StatefulPartitionedCall/model/tf__concat_1/concat", "StatefulPartitionedCall/model/tf__c3_5/tf__conv_42/conv2d_42/Conv2D_weights", "StatefulPartitionedCall/model/tf__c3_5/tf__conv_42/conv2d_42/Conv2D_bn_offset"], "device": "/device:CPU:0", "attr": {"dilations": {"list": {"i": ["1", "1", "1", "1"]}}, "T": {"type": "DT_FLOAT"}, "strides": {"list": {"i": ["1", "1", "1", "1"]}}, "data_format": {"s": "TkhXQw=="}, "explicit_paddings": {"list": {}}, "use_cudnn_on_gpu": {"b": true}, "num_args": {"i": "1"}, "epsilon": {"f": 0.0}, "padding": {"s": "U0FNRQ=="}, "fused_ops": {"list": {"s": ["Qmlhc0FkZA=="]}}}}, {"name": "StatefulPartitionedCall/model/tf__c3_5/tf__conv_43/tf_bn_43/batch_normalization_43/FusedBatchNormV3", "op": "_FusedConv2D", "input": ["StatefulPartitionedCall/model/tf__concat_1/concat", "StatefulPartitionedCall/model/tf__c3_5/tf__conv_43/conv2d_43/Conv2D_weights", "StatefulPartitionedCall/model/tf__c3_5/tf__conv_43/conv2d_43/Conv2D_bn_offset"], "device": "/device:CPU:0", "attr": {"num_args": {"i": "1"}, "epsilon": {"f": 0.0}, "padding": {"s": "U0FNRQ=="}, "fused_ops": {"list": {"s": ["Qmlhc0FkZA=="]}}, "dilations": {"list": {"i": ["1", "1", "1", "1"]}}, "T": {"type": "DT_FLOAT"}, "strides": {"list": {"i": ["1", "1", "1", "1"]}}, "data_format": {"s": "TkhXQw=="}, "explicit_paddings": {"list": {}}, "use_cudnn_on_gpu": {"b": true}}}, {"name": "StatefulPartitionedCall/model/tf__c3_5/tf__conv_42/Sigmoid", "op": "Sigmoid", "input": ["StatefulPartitionedCall/model/tf__c3_5/tf__conv_42/tf_bn_42/batch_normalization_42/FusedBatchNormV3"], "attr": {"T": {"type": "DT_FLOAT"}}}, {"name": "StatefulPartitionedCall/model/tf__c3_5/tf__conv_43/Sigmoid", "op": "Sigmoid", "input": ["StatefulPartitionedCall/model/tf__c3_5/tf__conv_43/tf_bn_43/batch_normalization_43/FusedBatchNormV3"], "attr": {"T": {"type": "DT_FLOAT"}}}, {"name": "StatefulPartitionedCall/model/tf__c3_5/tf__conv_42/mul", "op": "Mul", "input": ["StatefulPartitionedCall/model/tf__c3_5/tf__conv_42/tf_bn_42/batch_normalization_42/FusedBatchNormV3", "StatefulPartitionedCall/model/tf__c3_5/tf__conv_42/Sigmoid"], "attr": {"T": {"type": "DT_FLOAT"}}}, {"name": "StatefulPartitionedCall/model/tf__c3_5/tf__conv_43/mul", "op": "Mul", "input": ["StatefulPartitionedCall/model/tf__c3_5/tf__conv_43/tf_bn_43/batch_normalization_43/FusedBatchNormV3", "StatefulPartitionedCall/model/tf__c3_5/tf__conv_43/Sigmoid"], "attr": {"T": {"type": "DT_FLOAT"}}}, {"name": "StatefulPartitionedCall/model/tf__c3_5/sequential_9/tf__bottleneck_9/tf__conv_45/tf_bn_45/batch_normalization_45/FusedBatchNormV3", "op": "_FusedConv2D", "input": ["StatefulPartitionedCall/model/tf__c3_5/tf__conv_42/mul", "StatefulPartitionedCall/model/tf__c3_5/sequential_9/tf__bottleneck_9/tf__conv_45/conv2d_45/Conv2D_weights", "StatefulPartitionedCall/model/tf__c3_5/sequential_9/tf__bottleneck_9/tf__conv_45/conv2d_45/Conv2D_bn_offset"], "device": "/device:CPU:0", "attr": {"dilations": {"list": {"i": ["1", "1", "1", "1"]}}, "T": {"type": "DT_FLOAT"}, "data_format": {"s": "TkhXQw=="}, "strides": {"list": {"i": ["1", "1", "1", "1"]}}, "use_cudnn_on_gpu": {"b": true}, "explicit_paddings": {"list": {}}, "num_args": {"i": "1"}, "epsilon": {"f": 0.0}, "padding": {"s": "U0FNRQ=="}, "fused_ops": {"list": {"s": ["Qmlhc0FkZA=="]}}}}, {"name": "StatefulPartitionedCall/model/tf__c3_5/sequential_9/tf__bottleneck_9/tf__conv_45/Sigmoid", "op": "Sigmoid", "input": ["StatefulPartitionedCall/model/tf__c3_5/sequential_9/tf__bottleneck_9/tf__conv_45/tf_bn_45/batch_normalization_45/FusedBatchNormV3"], "attr": {"T": {"type": "DT_FLOAT"}}}, {"name": "StatefulPartitionedCall/model/tf__c3_5/sequential_9/tf__bottleneck_9/tf__conv_45/mul", "op": "Mul", "input": ["StatefulPartitionedCall/model/tf__c3_5/sequential_9/tf__bottleneck_9/tf__conv_45/tf_bn_45/batch_normalization_45/FusedBatchNormV3", "StatefulPartitionedCall/model/tf__c3_5/sequential_9/tf__bottleneck_9/tf__conv_45/Sigmoid"], "attr": {"T": {"type": "DT_FLOAT"}}}, {"name": "StatefulPartitionedCall/model/tf__c3_5/sequential_9/tf__bottleneck_9/tf__conv_46/tf_bn_46/batch_normalization_46/FusedBatchNormV3", "op": "_FusedConv2D", "input": ["StatefulPartitionedCall/model/tf__c3_5/sequential_9/tf__bottleneck_9/tf__conv_45/mul", "StatefulPartitionedCall/model/tf__c3_5/sequential_9/tf__bottleneck_9/tf__conv_46/conv2d_46/Conv2D_weights", "StatefulPartitionedCall/model/tf__c3_5/sequential_9/tf__bottleneck_9/tf__conv_46/conv2d_46/Conv2D_bn_offset"], "device": "/device:CPU:0", "attr": {"epsilon": {"f": 0.0}, "padding": {"s": "U0FNRQ=="}, "fused_ops": {"list": {"s": ["Qmlhc0FkZA=="]}}, "dilations": {"list": {"i": ["1", "1", "1", "1"]}}, "T": {"type": "DT_FLOAT"}, "data_format": {"s": "TkhXQw=="}, "strides": {"list": {"i": ["1", "1", "1", "1"]}}, "explicit_paddings": {"list": {}}, "use_cudnn_on_gpu": {"b": true}, "num_args": {"i": "1"}}}, {"name": "StatefulPartitionedCall/model/tf__c3_5/sequential_9/tf__bottleneck_9/tf__conv_46/Sigmoid", "op": "Sigmoid", "input": ["StatefulPartitionedCall/model/tf__c3_5/sequential_9/tf__bottleneck_9/tf__conv_46/tf_bn_46/batch_normalization_46/FusedBatchNormV3"], "attr": {"T": {"type": "DT_FLOAT"}}}, {"name": "StatefulPartitionedCall/model/tf__c3_5/sequential_9/tf__bottleneck_9/tf__conv_46/mul", "op": "Mul", "input": ["StatefulPartitionedCall/model/tf__c3_5/sequential_9/tf__bottleneck_9/tf__conv_46/tf_bn_46/batch_normalization_46/FusedBatchNormV3", "StatefulPartitionedCall/model/tf__c3_5/sequential_9/tf__bottleneck_9/tf__conv_46/Sigmoid"], "attr": {"T": {"type": "DT_FLOAT"}}}, {"name": "StatefulPartitionedCall/model/tf__c3_5/concat", "op": "ConcatV2", "input": ["StatefulPartitionedCall/model/tf__c3_5/sequential_9/tf__bottleneck_9/tf__conv_46/mul", "StatefulPartitionedCall/model/tf__c3_5/tf__conv_43/mul", "StatefulPartitionedCall/model/tf__c3_5/concat/axis"], "attr": {"Tidx": {"type": "DT_INT32"}, "T": {"type": "DT_FLOAT"}, "N": {"i": "2"}}}, {"name": "StatefulPartitionedCall/model/tf__c3_5/tf__conv_44/tf_bn_44/batch_normalization_44/FusedBatchNormV3", "op": "_FusedConv2D", "input": ["StatefulPartitionedCall/model/tf__c3_5/concat", "StatefulPartitionedCall/model/tf__c3_5/tf__conv_44/conv2d_44/Conv2D_weights", "StatefulPartitionedCall/model/tf__c3_5/tf__conv_44/conv2d_44/Conv2D_bn_offset"], "device": "/device:CPU:0", "attr": {"dilations": {"list": {"i": ["1", "1", "1", "1"]}}, "T": {"type": "DT_FLOAT"}, "strides": {"list": {"i": ["1", "1", "1", "1"]}}, "data_format": {"s": "TkhXQw=="}, "use_cudnn_on_gpu": {"b": true}, "explicit_paddings": {"list": {}}, "num_args": {"i": "1"}, "epsilon": {"f": 0.0}, "padding": {"s": "U0FNRQ=="}, "fused_ops": {"list": {"s": ["Qmlhc0FkZA=="]}}}}, {"name": "StatefulPartitionedCall/model/tf__c3_5/tf__conv_44/Sigmoid", "op": "Sigmoid", "input": ["StatefulPartitionedCall/model/tf__c3_5/tf__conv_44/tf_bn_44/batch_normalization_44/FusedBatchNormV3"], "attr": {"T": {"type": "DT_FLOAT"}}}, {"name": "StatefulPartitionedCall/model/tf__c3_5/tf__conv_44/mul", "op": "Mul", "input": ["StatefulPartitionedCall/model/tf__c3_5/tf__conv_44/tf_bn_44/batch_normalization_44/FusedBatchNormV3", "StatefulPartitionedCall/model/tf__c3_5/tf__conv_44/Sigmoid"], "attr": {"T": {"type": "DT_FLOAT"}}}, {"name": "StatefulPartitionedCall/model/tf__detect/tf__conv2d/conv2d_59/BiasAdd", "op": "_FusedConv2D", "input": ["StatefulPartitionedCall/model/tf__c3_5/tf__conv_44/mul", "StatefulPartitionedCall/model/tf__detect/tf__conv2d/conv2d_59/Conv2D/ReadVariableOp", "StatefulPartitionedCall/model/tf__detect/tf__conv2d/conv2d_59/BiasAdd/ReadVariableOp"], "device": "/device:CPU:0", "attr": {"epsilon": {"f": 0.0}, "padding": {"s": "VkFMSUQ="}, "fused_ops": {"list": {"s": ["Qmlhc0FkZA=="]}}, "dilations": {"list": {"i": ["1", "1", "1", "1"]}}, "T": {"type": "DT_FLOAT"}, "strides": {"list": {"i": ["1", "1", "1", "1"]}}, "data_format": {"s": "TkhXQw=="}, "use_cudnn_on_gpu": {"b": true}, "explicit_paddings": {"list": {}}, "num_args": {"i": "1"}}}, {"name": "StatefulPartitionedCall/model/tf__conv_47/sequential_10/tf__pad_4/Pad", "op": "Pad", "input": ["StatefulPartitionedCall/model/tf__c3_5/tf__conv_44/mul", "unknown_238"], "attr": {"Tpaddings": {"type": "DT_INT32"}, "T": {"type": "DT_FLOAT"}}}, {"name": "StatefulPartitionedCall/model/tf__detect/Reshape", "op": "Reshape", "input": ["StatefulPartitionedCall/model/tf__detect/tf__conv2d/conv2d_59/BiasAdd", "StatefulPartitionedCall/model/tf__detect/Reshape/shape_1"], "attr": {"Tshape": {"type": "DT_INT32"}, "T": {"type": "DT_FLOAT"}}}, {"name": "StatefulPartitionedCall/model/tf__conv_47/tf_bn_47/batch_normalization_47/FusedBatchNormV3", "op": "_FusedConv2D", "input": ["StatefulPartitionedCall/model/tf__conv_47/sequential_10/tf__pad_4/Pad", "StatefulPartitionedCall/model/tf__conv_47/sequential_10/conv2d_47/Conv2D_weights", "StatefulPartitionedCall/model/tf__conv_47/sequential_10/conv2d_47/Conv2D_bn_offset"], "device": "/device:CPU:0", "attr": {"data_format": {"s": "TkhXQw=="}, "strides": {"list": {"i": ["1", "2", "2", "1"]}}, "explicit_paddings": {"list": {}}, "use_cudnn_on_gpu": {"b": true}, "num_args": {"i": "1"}, "epsilon": {"f": 0.0}, "padding": {"s": "VkFMSUQ="}, "fused_ops": {"list": {"s": ["Qmlhc0FkZA=="]}}, "dilations": {"list": {"i": ["1", "1", "1", "1"]}}, "T": {"type": "DT_FLOAT"}}}, {"name": "StatefulPartitionedCall/model/tf__detect/transpose", "op": "Transpose", "input": ["StatefulPartitionedCall/model/tf__detect/Reshape", "StatefulPartitionedCall/model/tf__detect/transpose/perm"], "attr": {"Tperm": {"type": "DT_INT32"}, "T": {"type": "DT_FLOAT"}}}, {"name": "StatefulPartitionedCall/model/tf__conv_47/Sigmoid", "op": "Sigmoid", "input": ["StatefulPartitionedCall/model/tf__conv_47/tf_bn_47/batch_normalization_47/FusedBatchNormV3"], "attr": {"T": {"type": "DT_FLOAT"}}}, {"name": "StatefulPartitionedCall/model/tf__detect/Sigmoid", "op": "Sigmoid", "input": ["StatefulPartitionedCall/model/tf__detect/transpose"], "attr": {"T": {"type": "DT_FLOAT"}}}, {"name": "StatefulPartitionedCall/model/tf__conv_47/mul", "op": "Mul", "input": ["StatefulPartitionedCall/model/tf__conv_47/tf_bn_47/batch_normalization_47/FusedBatchNormV3", "StatefulPartitionedCall/model/tf__conv_47/Sigmoid"], "attr": {"T": {"type": "DT_FLOAT"}}}, {"name": "StatefulPartitionedCall/model/tf__detect/strided_slice_2", "op": "StridedSlice", "input": ["StatefulPartitionedCall/model/tf__detect/Sigmoid", "StatefulPartitionedCall/model/tf__detect/strided_slice_2/stack", "StatefulPartitionedCall/model/tf__detect/strided_slice_2/stack_1", "StatefulPartitionedCall/model/tf__detect/strided_slice_2/stack_2"], "attr": {"T": {"type": "DT_FLOAT"}, "Index": {"type": "DT_INT32"}, "shrink_axis_mask": {"i": "0"}, "begin_mask": {"i": "0"}, "ellipsis_mask": {"i": "1"}, "new_axis_mask": {"i": "0"}, "end_mask": {"i": "0"}}}, {"name": "StatefulPartitionedCall/model/tf__detect/strided_slice_4", "op": "StridedSlice", "input": ["StatefulPartitionedCall/model/tf__detect/Sigmoid", "StatefulPartitionedCall/model/tf__detect/strided_slice_4/stack", "StatefulPartitionedCall/model/tf__detect/strided_slice_4/stack_1", "StatefulPartitionedCall/model/tf__detect/strided_slice_4/stack_2"], "attr": {"T": {"type": "DT_FLOAT"}, "Index": {"type": "DT_INT32"}, "shrink_axis_mask": {"i": "0"}, "begin_mask": {"i": "0"}, "ellipsis_mask": {"i": "1"}, "new_axis_mask": {"i": "0"}, "end_mask": {"i": "0"}}}, {"name": "StatefulPartitionedCall/model/tf__detect/strided_slice_6", "op": "StridedSlice", "input": ["StatefulPartitionedCall/model/tf__detect/Sigmoid", "StatefulPartitionedCall/model/tf__detect/strided_slice_6/stack", "StatefulPartitionedCall/model/tf__detect/strided_slice_6/stack_1", "StatefulPartitionedCall/model/tf__detect/strided_slice_6/stack_2"], "attr": {"Index": {"type": "DT_INT32"}, "T": {"type": "DT_FLOAT"}, "shrink_axis_mask": {"i": "0"}, "begin_mask": {"i": "0"}, "ellipsis_mask": {"i": "1"}, "new_axis_mask": {"i": "0"}, "end_mask": {"i": "2"}}}, {"name": "StatefulPartitionedCall/model/tf__concat_2/concat", "op": "ConcatV2", "input": ["StatefulPartitionedCall/model/tf__conv_47/mul", "StatefulPartitionedCall/model/tf__conv_41/mul", "StatefulPartitionedCall/model/tf__concat_2/concat/axis"], "attr": {"T": {"type": "DT_FLOAT"}, "N": {"i": "2"}, "Tidx": {"type": "DT_INT32"}}}, {"name": "StatefulPartitionedCall/model/tf__detect/mul_1", "op": "Mul", "input": ["StatefulPartitionedCall/model/tf__detect/strided_slice_2", "StatefulPartitionedCall/model/tf__detect/mul_1/y"], "attr": {"T": {"type": "DT_FLOAT"}}}, {"name": "StatefulPartitionedCall/model/tf__detect/mul_3", "op": "Mul", "input": ["StatefulPartitionedCall/model/tf__detect/strided_slice_4", "StatefulPartitionedCall/model/tf__detect/mul_3/y"], "attr": {"T": {"type": "DT_FLOAT"}}}, {"name": "StatefulPartitionedCall/model/tf__c3_6/tf__conv_48/tf_bn_48/batch_normalization_48/FusedBatchNormV3", "op": "_FusedConv2D", "input": ["StatefulPartitionedCall/model/tf__concat_2/concat", "StatefulPartitionedCall/model/tf__c3_6/tf__conv_48/conv2d_48/Conv2D_weights", "StatefulPartitionedCall/model/tf__c3_6/tf__conv_48/conv2d_48/Conv2D_bn_offset"], "device": "/device:CPU:0", "attr": {"dilations": {"list": {"i": ["1", "1", "1", "1"]}}, "T": {"type": "DT_FLOAT"}, "strides": {"list": {"i": ["1", "1", "1", "1"]}}, "data_format": {"s": "TkhXQw=="}, "explicit_paddings": {"list": {}}, "use_cudnn_on_gpu": {"b": true}, "num_args": {"i": "1"}, "epsilon": {"f": 0.0}, "padding": {"s": "U0FNRQ=="}, "fused_ops": {"list": {"s": ["Qmlhc0FkZA=="]}}}}, {"name": "StatefulPartitionedCall/model/tf__c3_6/tf__conv_49/tf_bn_49/batch_normalization_49/FusedBatchNormV3", "op": "_FusedConv2D", "input": ["StatefulPartitionedCall/model/tf__concat_2/concat", "StatefulPartitionedCall/model/tf__c3_6/tf__conv_49/conv2d_49/Conv2D_weights", "StatefulPartitionedCall/model/tf__c3_6/tf__conv_49/conv2d_49/Conv2D_bn_offset"], "device": "/device:CPU:0", "attr": {"strides": {"list": {"i": ["1", "1", "1", "1"]}}, "data_format": {"s": "TkhXQw=="}, "use_cudnn_on_gpu": {"b": true}, "explicit_paddings": {"list": {}}, "num_args": {"i": "1"}, "epsilon": {"f": 0.0}, "padding": {"s": "U0FNRQ=="}, "fused_ops": {"list": {"s": ["Qmlhc0FkZA=="]}}, "dilations": {"list": {"i": ["1", "1", "1", "1"]}}, "T": {"type": "DT_FLOAT"}}}, {"name": "StatefulPartitionedCall/model/tf__detect/add", "op": "Add", "input": ["StatefulPartitionedCall/model/tf__detect/mul_1", "StatefulPartitionedCall/model/tf__detect/sub"], "attr": {"T": {"type": "DT_FLOAT"}}}, {"name": "StatefulPartitionedCall/model/tf__detect/pow", "op": "Square", "input": ["StatefulPartitionedCall/model/tf__detect/mul_3"], "attr": {"T": {"type": "DT_FLOAT"}}}, {"name": "StatefulPartitionedCall/model/tf__c3_6/tf__conv_48/Sigmoid", "op": "Sigmoid", "input": ["StatefulPartitionedCall/model/tf__c3_6/tf__conv_48/tf_bn_48/batch_normalization_48/FusedBatchNormV3"], "attr": {"T": {"type": "DT_FLOAT"}}}, {"name": "StatefulPartitionedCall/model/tf__c3_6/tf__conv_49/Sigmoid", "op": "Sigmoid", "input": ["StatefulPartitionedCall/model/tf__c3_6/tf__conv_49/tf_bn_49/batch_normalization_49/FusedBatchNormV3"], "attr": {"T": {"type": "DT_FLOAT"}}}, {"name": "StatefulPartitionedCall/model/tf__detect/truediv", "op": "Mul", "input": ["StatefulPartitionedCall/model/tf__detect/add", "StatefulPartitionedCall/model/tf__detect/mul_2"], "attr": {"T": {"type": "DT_FLOAT"}}}, {"name": "StatefulPartitionedCall/model/tf__detect/truediv_1", "op": "Mul", "input": ["StatefulPartitionedCall/model/tf__detect/pow", "StatefulPartitionedCall/model/tf__detect/mul_4"], "attr": {"T": {"type": "DT_FLOAT"}}}, {"name": "StatefulPartitionedCall/model/tf__c3_6/tf__conv_48/mul", "op": "Mul", "input": ["StatefulPartitionedCall/model/tf__c3_6/tf__conv_48/tf_bn_48/batch_normalization_48/FusedBatchNormV3", "StatefulPartitionedCall/model/tf__c3_6/tf__conv_48/Sigmoid"], "attr": {"T": {"type": "DT_FLOAT"}}}, {"name": "StatefulPartitionedCall/model/tf__c3_6/tf__conv_49/mul", "op": "Mul", "input": ["StatefulPartitionedCall/model/tf__c3_6/tf__conv_49/tf_bn_49/batch_normalization_49/FusedBatchNormV3", "StatefulPartitionedCall/model/tf__c3_6/tf__conv_49/Sigmoid"], "attr": {"T": {"type": "DT_FLOAT"}}}, {"name": "StatefulPartitionedCall/model/tf__detect/concat", "op": "ConcatV2", "input": ["StatefulPartitionedCall/model/tf__detect/truediv", "StatefulPartitionedCall/model/tf__detect/truediv_1", "StatefulPartitionedCall/model/tf__detect/strided_slice_6", "StatefulPartitionedCall/model/tf__detect/concat/axis"], "attr": {"T": {"type": "DT_FLOAT"}, "N": {"i": "3"}, "Tidx": {"type": "DT_INT32"}}}, {"name": "StatefulPartitionedCall/model/tf__c3_6/sequential_11/tf__bottleneck_10/tf__conv_51/tf_bn_51/batch_normalization_51/FusedBatchNormV3", "op": "_FusedConv2D", "input": ["StatefulPartitionedCall/model/tf__c3_6/tf__conv_48/mul", "StatefulPartitionedCall/model/tf__c3_6/sequential_11/tf__bottleneck_10/tf__conv_51/conv2d_51/Conv2D_weights", "StatefulPartitionedCall/model/tf__c3_6/sequential_11/tf__bottleneck_10/tf__conv_51/conv2d_51/Conv2D_bn_offset"], "device": "/device:CPU:0", "attr": {"data_format": {"s": "TkhXQw=="}, "strides": {"list": {"i": ["1", "1", "1", "1"]}}, "explicit_paddings": {"list": {}}, "use_cudnn_on_gpu": {"b": true}, "num_args": {"i": "1"}, "epsilon": {"f": 0.0}, "padding": {"s": "U0FNRQ=="}, "fused_ops": {"list": {"s": ["Qmlhc0FkZA=="]}}, "dilations": {"list": {"i": ["1", "1", "1", "1"]}}, "T": {"type": "DT_FLOAT"}}}, {"name": "StatefulPartitionedCall/model/tf__detect/Reshape_1", "op": "Reshape", "input": ["StatefulPartitionedCall/model/tf__detect/concat", "StatefulPartitionedCall/model/tf__detect/Reshape_1/shape_1"], "attr": {"T": {"type": "DT_FLOAT"}, "Tshape": {"type": "DT_INT32"}}}, {"name": "StatefulPartitionedCall/model/tf__c3_6/sequential_11/tf__bottleneck_10/tf__conv_51/Sigmoid", "op": "Sigmoid", "input": ["StatefulPartitionedCall/model/tf__c3_6/sequential_11/tf__bottleneck_10/tf__conv_51/tf_bn_51/batch_normalization_51/FusedBatchNormV3"], "attr": {"T": {"type": "DT_FLOAT"}}}, {"name": "StatefulPartitionedCall/model/tf__c3_6/sequential_11/tf__bottleneck_10/tf__conv_51/mul", "op": "Mul", "input": ["StatefulPartitionedCall/model/tf__c3_6/sequential_11/tf__bottleneck_10/tf__conv_51/tf_bn_51/batch_normalization_51/FusedBatchNormV3", "StatefulPartitionedCall/model/tf__c3_6/sequential_11/tf__bottleneck_10/tf__conv_51/Sigmoid"], "attr": {"T": {"type": "DT_FLOAT"}}}, {"name": "StatefulPartitionedCall/model/tf__c3_6/sequential_11/tf__bottleneck_10/tf__conv_52/tf_bn_52/batch_normalization_52/FusedBatchNormV3", "op": "_FusedConv2D", "input": ["StatefulPartitionedCall/model/tf__c3_6/sequential_11/tf__bottleneck_10/tf__conv_51/mul", "StatefulPartitionedCall/model/tf__c3_6/sequential_11/tf__bottleneck_10/tf__conv_52/conv2d_52/Conv2D_weights", "StatefulPartitionedCall/model/tf__c3_6/sequential_11/tf__bottleneck_10/tf__conv_52/conv2d_52/Conv2D_bn_offset"], "device": "/device:CPU:0", "attr": {"strides": {"list": {"i": ["1", "1", "1", "1"]}}, "data_format": {"s": "TkhXQw=="}, "explicit_paddings": {"list": {}}, "use_cudnn_on_gpu": {"b": true}, "num_args": {"i": "1"}, "epsilon": {"f": 0.0}, "padding": {"s": "U0FNRQ=="}, "fused_ops": {"list": {"s": ["Qmlhc0FkZA=="]}}, "dilations": {"list": {"i": ["1", "1", "1", "1"]}}, "T": {"type": "DT_FLOAT"}}}, {"name": "StatefulPartitionedCall/model/tf__c3_6/sequential_11/tf__bottleneck_10/tf__conv_52/Sigmoid", "op": "Sigmoid", "input": ["StatefulPartitionedCall/model/tf__c3_6/sequential_11/tf__bottleneck_10/tf__conv_52/tf_bn_52/batch_normalization_52/FusedBatchNormV3"], "attr": {"T": {"type": "DT_FLOAT"}}}, {"name": "StatefulPartitionedCall/model/tf__c3_6/sequential_11/tf__bottleneck_10/tf__conv_52/mul", "op": "Mul", "input": ["StatefulPartitionedCall/model/tf__c3_6/sequential_11/tf__bottleneck_10/tf__conv_52/tf_bn_52/batch_normalization_52/FusedBatchNormV3", "StatefulPartitionedCall/model/tf__c3_6/sequential_11/tf__bottleneck_10/tf__conv_52/Sigmoid"], "attr": {"T": {"type": "DT_FLOAT"}}}, {"name": "StatefulPartitionedCall/model/tf__c3_6/concat", "op": "ConcatV2", "input": ["StatefulPartitionedCall/model/tf__c3_6/sequential_11/tf__bottleneck_10/tf__conv_52/mul", "StatefulPartitionedCall/model/tf__c3_6/tf__conv_49/mul", "StatefulPartitionedCall/model/tf__c3_6/concat/axis"], "attr": {"T": {"type": "DT_FLOAT"}, "N": {"i": "2"}, "Tidx": {"type": "DT_INT32"}}}, {"name": "StatefulPartitionedCall/model/tf__c3_6/tf__conv_50/tf_bn_50/batch_normalization_50/FusedBatchNormV3", "op": "_FusedConv2D", "input": ["StatefulPartitionedCall/model/tf__c3_6/concat", "StatefulPartitionedCall/model/tf__c3_6/tf__conv_50/conv2d_50/Conv2D_weights", "StatefulPartitionedCall/model/tf__c3_6/tf__conv_50/conv2d_50/Conv2D_bn_offset"], "device": "/device:CPU:0", "attr": {"dilations": {"list": {"i": ["1", "1", "1", "1"]}}, "T": {"type": "DT_FLOAT"}, "strides": {"list": {"i": ["1", "1", "1", "1"]}}, "data_format": {"s": "TkhXQw=="}, "use_cudnn_on_gpu": {"b": true}, "explicit_paddings": {"list": {}}, "num_args": {"i": "1"}, "epsilon": {"f": 0.0}, "padding": {"s": "U0FNRQ=="}, "fused_ops": {"list": {"s": ["Qmlhc0FkZA=="]}}}}, {"name": "StatefulPartitionedCall/model/tf__c3_6/tf__conv_50/Sigmoid", "op": "Sigmoid", "input": ["StatefulPartitionedCall/model/tf__c3_6/tf__conv_50/tf_bn_50/batch_normalization_50/FusedBatchNormV3"], "attr": {"T": {"type": "DT_FLOAT"}}}, {"name": "StatefulPartitionedCall/model/tf__c3_6/tf__conv_50/mul", "op": "Mul", "input": ["StatefulPartitionedCall/model/tf__c3_6/tf__conv_50/tf_bn_50/batch_normalization_50/FusedBatchNormV3", "StatefulPartitionedCall/model/tf__c3_6/tf__conv_50/Sigmoid"], "attr": {"T": {"type": "DT_FLOAT"}}}, {"name": "StatefulPartitionedCall/model/tf__conv_53/sequential_12/tf__pad_5/Pad", "op": "Pad", "input": ["StatefulPartitionedCall/model/tf__c3_6/tf__conv_50/mul", "unknown_269"], "attr": {"T": {"type": "DT_FLOAT"}, "Tpaddings": {"type": "DT_INT32"}}}, {"name": "StatefulPartitionedCall/model/tf__detect/tf__conv2d_1/conv2d_60/BiasAdd", "op": "_FusedConv2D", "input": ["StatefulPartitionedCall/model/tf__c3_6/tf__conv_50/mul", "StatefulPartitionedCall/model/tf__detect/tf__conv2d_1/conv2d_60/Conv2D/ReadVariableOp", "StatefulPartitionedCall/model/tf__detect/tf__conv2d_1/conv2d_60/BiasAdd/ReadVariableOp"], "device": "/device:CPU:0", "attr": {"dilations": {"list": {"i": ["1", "1", "1", "1"]}}, "T": {"type": "DT_FLOAT"}, "strides": {"list": {"i": ["1", "1", "1", "1"]}}, "data_format": {"s": "TkhXQw=="}, "use_cudnn_on_gpu": {"b": true}, "explicit_paddings": {"list": {}}, "num_args": {"i": "1"}, "epsilon": {"f": 0.0}, "padding": {"s": "VkFMSUQ="}, "fused_ops": {"list": {"s": ["Qmlhc0FkZA=="]}}}}, {"name": "StatefulPartitionedCall/model/tf__conv_53/tf_bn_53/batch_normalization_53/FusedBatchNormV3", "op": "_FusedConv2D", "input": ["StatefulPartitionedCall/model/tf__conv_53/sequential_12/tf__pad_5/Pad", "StatefulPartitionedCall/model/tf__conv_53/sequential_12/conv2d_53/Conv2D_weights", "StatefulPartitionedCall/model/tf__conv_53/sequential_12/conv2d_53/Conv2D_bn_offset"], "device": "/device:CPU:0", "attr": {"fused_ops": {"list": {"s": ["Qmlhc0FkZA=="]}}, "dilations": {"list": {"i": ["1", "1", "1", "1"]}}, "T": {"type": "DT_FLOAT"}, "data_format": {"s": "TkhXQw=="}, "strides": {"list": {"i": ["1", "2", "2", "1"]}}, "use_cudnn_on_gpu": {"b": true}, "explicit_paddings": {"list": {}}, "num_args": {"i": "1"}, "epsilon": {"f": 0.0}, "padding": {"s": "VkFMSUQ="}}}, {"name": "StatefulPartitionedCall/model/tf__detect/Reshape_2", "op": "Reshape", "input": ["StatefulPartitionedCall/model/tf__detect/tf__conv2d_1/conv2d_60/BiasAdd", "StatefulPartitionedCall/model/tf__detect/Reshape_2/shape_1"], "attr": {"T": {"type": "DT_FLOAT"}, "Tshape": {"type": "DT_INT32"}}}, {"name": "StatefulPartitionedCall/model/tf__conv_53/Sigmoid", "op": "Sigmoid", "input": ["StatefulPartitionedCall/model/tf__conv_53/tf_bn_53/batch_normalization_53/FusedBatchNormV3"], "attr": {"T": {"type": "DT_FLOAT"}}}, {"name": "StatefulPartitionedCall/model/tf__detect/transpose_1", "op": "Transpose", "input": ["StatefulPartitionedCall/model/tf__detect/Reshape_2", "StatefulPartitionedCall/model/tf__detect/transpose_1/perm"], "attr": {"T": {"type": "DT_FLOAT"}, "Tperm": {"type": "DT_INT32"}}}, {"name": "StatefulPartitionedCall/model/tf__conv_53/mul", "op": "Mul", "input": ["StatefulPartitionedCall/model/tf__conv_53/tf_bn_53/batch_normalization_53/FusedBatchNormV3", "StatefulPartitionedCall/model/tf__conv_53/Sigmoid"], "attr": {"T": {"type": "DT_FLOAT"}}}, {"name": "StatefulPartitionedCall/model/tf__detect/Sigmoid_1", "op": "Sigmoid", "input": ["StatefulPartitionedCall/model/tf__detect/transpose_1"], "attr": {"T": {"type": "DT_FLOAT"}}}, {"name": "StatefulPartitionedCall/model/tf__concat_3/concat", "op": "ConcatV2", "input": ["StatefulPartitionedCall/model/tf__conv_53/mul", "StatefulPartitionedCall/model/tf__conv_35/mul", "StatefulPartitionedCall/model/tf__concat_3/concat/axis"], "attr": {"N": {"i": "2"}, "Tidx": {"type": "DT_INT32"}, "T": {"type": "DT_FLOAT"}}}, {"name": "StatefulPartitionedCall/model/tf__detect/strided_slice_13", "op": "StridedSlice", "input": ["StatefulPartitionedCall/model/tf__detect/Sigmoid_1", "StatefulPartitionedCall/model/tf__detect/strided_slice_13/stack", "StatefulPartitionedCall/model/tf__detect/strided_slice_13/stack_1", "StatefulPartitionedCall/model/tf__detect/strided_slice_13/stack_2"], "attr": {"shrink_axis_mask": {"i": "0"}, "begin_mask": {"i": "0"}, "ellipsis_mask": {"i": "1"}, "new_axis_mask": {"i": "0"}, "end_mask": {"i": "2"}, "T": {"type": "DT_FLOAT"}, "Index": {"type": "DT_INT32"}}}, {"name": "StatefulPartitionedCall/model/tf__detect/strided_slice_9", "op": "StridedSlice", "input": ["StatefulPartitionedCall/model/tf__detect/Sigmoid_1", "StatefulPartitionedCall/model/tf__detect/strided_slice_9/stack", "StatefulPartitionedCall/model/tf__detect/strided_slice_9/stack_1", "StatefulPartitionedCall/model/tf__detect/strided_slice_9/stack_2"], "attr": {"T": {"type": "DT_FLOAT"}, "Index": {"type": "DT_INT32"}, "shrink_axis_mask": {"i": "0"}, "ellipsis_mask": {"i": "1"}, "begin_mask": {"i": "0"}, "new_axis_mask": {"i": "0"}, "end_mask": {"i": "0"}}}, {"name": "StatefulPartitionedCall/model/tf__detect/strided_slice_11", "op": "StridedSlice", "input": ["StatefulPartitionedCall/model/tf__detect/Sigmoid_1", "StatefulPartitionedCall/model/tf__detect/strided_slice_11/stack", "StatefulPartitionedCall/model/tf__detect/strided_slice_11/stack_1", "StatefulPartitionedCall/model/tf__detect/strided_slice_11/stack_2"], "attr": {"Index": {"type": "DT_INT32"}, "T": {"type": "DT_FLOAT"}, "shrink_axis_mask": {"i": "0"}, "begin_mask": {"i": "0"}, "ellipsis_mask": {"i": "1"}, "new_axis_mask": {"i": "0"}, "end_mask": {"i": "0"}}}, {"name": "StatefulPartitionedCall/model/tf__c3_7/tf__conv_54/tf_bn_54/batch_normalization_54/FusedBatchNormV3", "op": "_FusedConv2D", "input": ["StatefulPartitionedCall/model/tf__concat_3/concat", "StatefulPartitionedCall/model/tf__c3_7/tf__conv_54/conv2d_54/Conv2D_weights", "StatefulPartitionedCall/model/tf__c3_7/tf__conv_54/conv2d_54/Conv2D_bn_offset"], "device": "/device:CPU:0", "attr": {"use_cudnn_on_gpu": {"b": true}, "explicit_paddings": {"list": {}}, "num_args": {"i": "1"}, "epsilon": {"f": 0.0}, "padding": {"s": "U0FNRQ=="}, "fused_ops": {"list": {"s": ["Qmlhc0FkZA=="]}}, "dilations": {"list": {"i": ["1", "1", "1", "1"]}}, "T": {"type": "DT_FLOAT"}, "data_format": {"s": "TkhXQw=="}, "strides": {"list": {"i": ["1", "1", "1", "1"]}}}}, {"name": "StatefulPartitionedCall/model/tf__c3_7/tf__conv_55/tf_bn_55/batch_normalization_55/FusedBatchNormV3", "op": "_FusedConv2D", "input": ["StatefulPartitionedCall/model/tf__concat_3/concat", "StatefulPartitionedCall/model/tf__c3_7/tf__conv_55/conv2d_55/Conv2D_weights", "StatefulPartitionedCall/model/tf__c3_7/tf__conv_55/conv2d_55/Conv2D_bn_offset"], "device": "/device:CPU:0", "attr": {"num_args": {"i": "1"}, "epsilon": {"f": 0.0}, "padding": {"s": "U0FNRQ=="}, "fused_ops": {"list": {"s": ["Qmlhc0FkZA=="]}}, "dilations": {"list": {"i": ["1", "1", "1", "1"]}}, "T": {"type": "DT_FLOAT"}, "data_format": {"s": "TkhXQw=="}, "strides": {"list": {"i": ["1", "1", "1", "1"]}}, "use_cudnn_on_gpu": {"b": true}, "explicit_paddings": {"list": {}}}}, {"name": "StatefulPartitionedCall/model/tf__detect/mul_8", "op": "Mul", "input": ["StatefulPartitionedCall/model/tf__detect/strided_slice_9", "StatefulPartitionedCall/model/tf__detect/mul_8/y"], "attr": {"T": {"type": "DT_FLOAT"}}}, {"name": "StatefulPartitionedCall/model/tf__detect/mul_10", "op": "Mul", "input": ["StatefulPartitionedCall/model/tf__detect/strided_slice_11", "StatefulPartitionedCall/model/tf__detect/mul_10/y"], "attr": {"T": {"type": "DT_FLOAT"}}}, {"name": "StatefulPartitionedCall/model/tf__c3_7/tf__conv_54/Sigmoid", "op": "Sigmoid", "input": ["StatefulPartitionedCall/model/tf__c3_7/tf__conv_54/tf_bn_54/batch_normalization_54/FusedBatchNormV3"], "attr": {"T": {"type": "DT_FLOAT"}}}, {"name": "StatefulPartitionedCall/model/tf__c3_7/tf__conv_55/Sigmoid", "op": "Sigmoid", "input": ["StatefulPartitionedCall/model/tf__c3_7/tf__conv_55/tf_bn_55/batch_normalization_55/FusedBatchNormV3"], "attr": {"T": {"type": "DT_FLOAT"}}}, {"name": "StatefulPartitionedCall/model/tf__detect/add_1", "op": "Add", "input": ["StatefulPartitionedCall/model/tf__detect/mul_8", "StatefulPartitionedCall/model/tf__detect/sub_1"], "attr": {"T": {"type": "DT_FLOAT"}}}, {"name": "StatefulPartitionedCall/model/tf__detect/pow_1", "op": "Square", "input": ["StatefulPartitionedCall/model/tf__detect/mul_10"], "attr": {"T": {"type": "DT_FLOAT"}}}, {"name": "StatefulPartitionedCall/model/tf__c3_7/tf__conv_54/mul", "op": "Mul", "input": ["StatefulPartitionedCall/model/tf__c3_7/tf__conv_54/tf_bn_54/batch_normalization_54/FusedBatchNormV3", "StatefulPartitionedCall/model/tf__c3_7/tf__conv_54/Sigmoid"], "attr": {"T": {"type": "DT_FLOAT"}}}, {"name": "StatefulPartitionedCall/model/tf__c3_7/tf__conv_55/mul", "op": "Mul", "input": ["StatefulPartitionedCall/model/tf__c3_7/tf__conv_55/tf_bn_55/batch_normalization_55/FusedBatchNormV3", "StatefulPartitionedCall/model/tf__c3_7/tf__conv_55/Sigmoid"], "attr": {"T": {"type": "DT_FLOAT"}}}, {"name": "StatefulPartitionedCall/model/tf__detect/truediv_2", "op": "Mul", "input": ["StatefulPartitionedCall/model/tf__detect/add_1", "StatefulPartitionedCall/model/tf__detect/mul_9"], "attr": {"T": {"type": "DT_FLOAT"}}}, {"name": "StatefulPartitionedCall/model/tf__detect/truediv_3", "op": "Mul", "input": ["StatefulPartitionedCall/model/tf__detect/pow_1", "StatefulPartitionedCall/model/tf__detect/mul_11"], "attr": {"T": {"type": "DT_FLOAT"}}}, {"name": "StatefulPartitionedCall/model/tf__c3_7/sequential_13/tf__bottleneck_11/tf__conv_57/tf_bn_57/batch_normalization_57/FusedBatchNormV3", "op": "_FusedConv2D", "input": ["StatefulPartitionedCall/model/tf__c3_7/tf__conv_54/mul", "StatefulPartitionedCall/model/tf__c3_7/sequential_13/tf__bottleneck_11/tf__conv_57/conv2d_57/Conv2D_weights", "StatefulPartitionedCall/model/tf__c3_7/sequential_13/tf__bottleneck_11/tf__conv_57/conv2d_57/Conv2D_bn_offset"], "device": "/device:CPU:0", "attr": {"explicit_paddings": {"list": {}}, "use_cudnn_on_gpu": {"b": true}, "num_args": {"i": "1"}, "epsilon": {"f": 0.0}, "padding": {"s": "U0FNRQ=="}, "fused_ops": {"list": {"s": ["Qmlhc0FkZA=="]}}, "dilations": {"list": {"i": ["1", "1", "1", "1"]}}, "T": {"type": "DT_FLOAT"}, "data_format": {"s": "TkhXQw=="}, "strides": {"list": {"i": ["1", "1", "1", "1"]}}}}, {"name": "StatefulPartitionedCall/model/tf__detect/concat_1", "op": "ConcatV2", "input": ["StatefulPartitionedCall/model/tf__detect/truediv_2", "StatefulPartitionedCall/model/tf__detect/truediv_3", "StatefulPartitionedCall/model/tf__detect/strided_slice_13", "StatefulPartitionedCall/model/tf__detect/concat_1/axis"], "attr": {"T": {"type": "DT_FLOAT"}, "N": {"i": "3"}, "Tidx": {"type": "DT_INT32"}}}, {"name": "StatefulPartitionedCall/model/tf__c3_7/sequential_13/tf__bottleneck_11/tf__conv_57/Sigmoid", "op": "Sigmoid", "input": ["StatefulPartitionedCall/model/tf__c3_7/sequential_13/tf__bottleneck_11/tf__conv_57/tf_bn_57/batch_normalization_57/FusedBatchNormV3"], "attr": {"T": {"type": "DT_FLOAT"}}}, {"name": "StatefulPartitionedCall/model/tf__detect/Reshape_3", "op": "Reshape", "input": ["StatefulPartitionedCall/model/tf__detect/concat_1", "StatefulPartitionedCall/model/tf__detect/Reshape_3/shape_1"], "attr": {"T": {"type": "DT_FLOAT"}, "Tshape": {"type": "DT_INT32"}}}, {"name": "StatefulPartitionedCall/model/tf__c3_7/sequential_13/tf__bottleneck_11/tf__conv_57/mul", "op": "Mul", "input": ["StatefulPartitionedCall/model/tf__c3_7/sequential_13/tf__bottleneck_11/tf__conv_57/tf_bn_57/batch_normalization_57/FusedBatchNormV3", "StatefulPartitionedCall/model/tf__c3_7/sequential_13/tf__bottleneck_11/tf__conv_57/Sigmoid"], "attr": {"T": {"type": "DT_FLOAT"}}}, {"name": "StatefulPartitionedCall/model/tf__c3_7/sequential_13/tf__bottleneck_11/tf__conv_58/tf_bn_58/batch_normalization_58/FusedBatchNormV3", "op": "_FusedConv2D", "input": ["StatefulPartitionedCall/model/tf__c3_7/sequential_13/tf__bottleneck_11/tf__conv_57/mul", "StatefulPartitionedCall/model/tf__c3_7/sequential_13/tf__bottleneck_11/tf__conv_58/conv2d_58/Conv2D_weights", "StatefulPartitionedCall/model/tf__c3_7/sequential_13/tf__bottleneck_11/tf__conv_58/conv2d_58/Conv2D_bn_offset"], "device": "/device:CPU:0", "attr": {"dilations": {"list": {"i": ["1", "1", "1", "1"]}}, "T": {"type": "DT_FLOAT"}, "strides": {"list": {"i": ["1", "1", "1", "1"]}}, "data_format": {"s": "TkhXQw=="}, "use_cudnn_on_gpu": {"b": true}, "explicit_paddings": {"list": {}}, "num_args": {"i": "1"}, "epsilon": {"f": 0.0}, "padding": {"s": "U0FNRQ=="}, "fused_ops": {"list": {"s": ["Qmlhc0FkZA=="]}}}}, {"name": "StatefulPartitionedCall/model/tf__c3_7/sequential_13/tf__bottleneck_11/tf__conv_58/Sigmoid", "op": "Sigmoid", "input": ["StatefulPartitionedCall/model/tf__c3_7/sequential_13/tf__bottleneck_11/tf__conv_58/tf_bn_58/batch_normalization_58/FusedBatchNormV3"], "attr": {"T": {"type": "DT_FLOAT"}}}, {"name": "StatefulPartitionedCall/model/tf__c3_7/sequential_13/tf__bottleneck_11/tf__conv_58/mul", "op": "Mul", "input": ["StatefulPartitionedCall/model/tf__c3_7/sequential_13/tf__bottleneck_11/tf__conv_58/tf_bn_58/batch_normalization_58/FusedBatchNormV3", "StatefulPartitionedCall/model/tf__c3_7/sequential_13/tf__bottleneck_11/tf__conv_58/Sigmoid"], "attr": {"T": {"type": "DT_FLOAT"}}}, {"name": "StatefulPartitionedCall/model/tf__c3_7/concat", "op": "ConcatV2", "input": ["StatefulPartitionedCall/model/tf__c3_7/sequential_13/tf__bottleneck_11/tf__conv_58/mul", "StatefulPartitionedCall/model/tf__c3_7/tf__conv_55/mul", "StatefulPartitionedCall/model/tf__c3_7/concat/axis"], "attr": {"N": {"i": "2"}, "Tidx": {"type": "DT_INT32"}, "T": {"type": "DT_FLOAT"}}}, {"name": "StatefulPartitionedCall/model/tf__c3_7/tf__conv_56/tf_bn_56/batch_normalization_56/FusedBatchNormV3", "op": "_FusedConv2D", "input": ["StatefulPartitionedCall/model/tf__c3_7/concat", "StatefulPartitionedCall/model/tf__c3_7/tf__conv_56/conv2d_56/Conv2D_weights", "StatefulPartitionedCall/model/tf__c3_7/tf__conv_56/conv2d_56/Conv2D_bn_offset"], "device": "/device:CPU:0", "attr": {"dilations": {"list": {"i": ["1", "1", "1", "1"]}}, "T": {"type": "DT_FLOAT"}, "strides": {"list": {"i": ["1", "1", "1", "1"]}}, "data_format": {"s": "TkhXQw=="}, "explicit_paddings": {"list": {}}, "use_cudnn_on_gpu": {"b": true}, "num_args": {"i": "1"}, "epsilon": {"f": 0.0}, "padding": {"s": "U0FNRQ=="}, "fused_ops": {"list": {"s": ["Qmlhc0FkZA=="]}}}}, {"name": "StatefulPartitionedCall/model/tf__c3_7/tf__conv_56/Sigmoid", "op": "Sigmoid", "input": ["StatefulPartitionedCall/model/tf__c3_7/tf__conv_56/tf_bn_56/batch_normalization_56/FusedBatchNormV3"], "attr": {"T": {"type": "DT_FLOAT"}}}, {"name": "StatefulPartitionedCall/model/tf__c3_7/tf__conv_56/mul", "op": "Mul", "input": ["StatefulPartitionedCall/model/tf__c3_7/tf__conv_56/tf_bn_56/batch_normalization_56/FusedBatchNormV3", "StatefulPartitionedCall/model/tf__c3_7/tf__conv_56/Sigmoid"], "attr": {"T": {"type": "DT_FLOAT"}}}, {"name": "StatefulPartitionedCall/model/tf__detect/tf__conv2d_2/conv2d_61/BiasAdd", "op": "_FusedConv2D", "input": ["StatefulPartitionedCall/model/tf__c3_7/tf__conv_56/mul", "StatefulPartitionedCall/model/tf__detect/tf__conv2d_2/conv2d_61/Conv2D/ReadVariableOp", "StatefulPartitionedCall/model/tf__detect/tf__conv2d_2/conv2d_61/BiasAdd/ReadVariableOp"], "device": "/device:CPU:0", "attr": {"explicit_paddings": {"list": {}}, "use_cudnn_on_gpu": {"b": true}, "num_args": {"i": "1"}, "epsilon": {"f": 0.0}, "padding": {"s": "VkFMSUQ="}, "fused_ops": {"list": {"s": ["Qmlhc0FkZA=="]}}, "dilations": {"list": {"i": ["1", "1", "1", "1"]}}, "T": {"type": "DT_FLOAT"}, "strides": {"list": {"i": ["1", "1", "1", "1"]}}, "data_format": {"s": "TkhXQw=="}}}, {"name": "StatefulPartitionedCall/model/tf__detect/Reshape_4", "op": "Reshape", "input": ["StatefulPartitionedCall/model/tf__detect/tf__conv2d_2/conv2d_61/BiasAdd", "StatefulPartitionedCall/model/tf__detect/Reshape_4/shape_1"], "attr": {"Tshape": {"type": "DT_INT32"}, "T": {"type": "DT_FLOAT"}}}, {"name": "StatefulPartitionedCall/model/tf__detect/transpose_2", "op": "Transpose", "input": ["StatefulPartitionedCall/model/tf__detect/Reshape_4", "StatefulPartitionedCall/model/tf__detect/transpose_2/perm"], "attr": {"Tperm": {"type": "DT_INT32"}, "T": {"type": "DT_FLOAT"}}}, {"name": "StatefulPartitionedCall/model/tf__detect/Sigmoid_2", "op": "Sigmoid", "input": ["StatefulPartitionedCall/model/tf__detect/transpose_2"], "attr": {"T": {"type": "DT_FLOAT"}}}, {"name": "StatefulPartitionedCall/model/tf__detect/strided_slice_20", "op": "StridedSlice", "input": ["StatefulPartitionedCall/model/tf__detect/Sigmoid_2", "StatefulPartitionedCall/model/tf__detect/strided_slice_20/stack", "StatefulPartitionedCall/model/tf__detect/strided_slice_20/stack_1", "StatefulPartitionedCall/model/tf__detect/strided_slice_20/stack_2"], "attr": {"Index": {"type": "DT_INT32"}, "T": {"type": "DT_FLOAT"}, "shrink_axis_mask": {"i": "0"}, "begin_mask": {"i": "0"}, "ellipsis_mask": {"i": "1"}, "new_axis_mask": {"i": "0"}, "end_mask": {"i": "2"}}}, {"name": "StatefulPartitionedCall/model/tf__detect/strided_slice_16", "op": "StridedSlice", "input": ["StatefulPartitionedCall/model/tf__detect/Sigmoid_2", "StatefulPartitionedCall/model/tf__detect/strided_slice_16/stack", "StatefulPartitionedCall/model/tf__detect/strided_slice_16/stack_1", "StatefulPartitionedCall/model/tf__detect/strided_slice_16/stack_2"], "attr": {"shrink_axis_mask": {"i": "0"}, "begin_mask": {"i": "0"}, "ellipsis_mask": {"i": "1"}, "new_axis_mask": {"i": "0"}, "end_mask": {"i": "0"}, "T": {"type": "DT_FLOAT"}, "Index": {"type": "DT_INT32"}}}, {"name": "StatefulPartitionedCall/model/tf__detect/strided_slice_18", "op": "StridedSlice", "input": ["StatefulPartitionedCall/model/tf__detect/Sigmoid_2", "StatefulPartitionedCall/model/tf__detect/strided_slice_18/stack", "StatefulPartitionedCall/model/tf__detect/strided_slice_18/stack_1", "StatefulPartitionedCall/model/tf__detect/strided_slice_18/stack_2"], "attr": {"shrink_axis_mask": {"i": "0"}, "begin_mask": {"i": "0"}, "ellipsis_mask": {"i": "1"}, "new_axis_mask": {"i": "0"}, "end_mask": {"i": "0"}, "Index": {"type": "DT_INT32"}, "T": {"type": "DT_FLOAT"}}}, {"name": "StatefulPartitionedCall/model/tf__detect/mul_15", "op": "Mul", "input": ["StatefulPartitionedCall/model/tf__detect/strided_slice_16", "StatefulPartitionedCall/model/tf__detect/mul_15/y"], "attr": {"T": {"type": "DT_FLOAT"}}}, {"name": "StatefulPartitionedCall/model/tf__detect/mul_17", "op": "Mul", "input": ["StatefulPartitionedCall/model/tf__detect/strided_slice_18", "StatefulPartitionedCall/model/tf__detect/mul_17/y"], "attr": {"T": {"type": "DT_FLOAT"}}}, {"name": "StatefulPartitionedCall/model/tf__detect/add_2", "op": "Add", "input": ["StatefulPartitionedCall/model/tf__detect/mul_15", "StatefulPartitionedCall/model/tf__detect/sub_2"], "attr": {"T": {"type": "DT_FLOAT"}}}, {"name": "StatefulPartitionedCall/model/tf__detect/pow_2", "op": "Square", "input": ["StatefulPartitionedCall/model/tf__detect/mul_17"], "attr": {"T": {"type": "DT_FLOAT"}}}, {"name": "StatefulPartitionedCall/model/tf__detect/truediv_4", "op": "Mul", "input": ["StatefulPartitionedCall/model/tf__detect/add_2", "StatefulPartitionedCall/model/tf__detect/mul_16"], "attr": {"T": {"type": "DT_FLOAT"}}}, {"name": "StatefulPartitionedCall/model/tf__detect/truediv_5", "op": "Mul", "input": ["StatefulPartitionedCall/model/tf__detect/pow_2", "StatefulPartitionedCall/model/tf__detect/mul_18"], "attr": {"T": {"type": "DT_FLOAT"}}}, {"name": "StatefulPartitionedCall/model/tf__detect/concat_2", "op": "ConcatV2", "input": ["StatefulPartitionedCall/model/tf__detect/truediv_4", "StatefulPartitionedCall/model/tf__detect/truediv_5", "StatefulPartitionedCall/model/tf__detect/strided_slice_20", "StatefulPartitionedCall/model/tf__detect/concat_2/axis"], "attr": {"N": {"i": "3"}, "Tidx": {"type": "DT_INT32"}, "T": {"type": "DT_FLOAT"}}}, {"name": "StatefulPartitionedCall/model/tf__detect/Reshape_5", "op": "Reshape", "input": ["StatefulPartitionedCall/model/tf__detect/concat_2", "StatefulPartitionedCall/model/tf__detect/Reshape_5/shape_1"], "attr": {"T": {"type": "DT_FLOAT"}, "Tshape": {"type": "DT_INT32"}}}, {"name": "StatefulPartitionedCall/model/tf__detect/concat_3", "op": "ConcatV2", "input": ["StatefulPartitionedCall/model/tf__detect/Reshape_1", "StatefulPartitionedCall/model/tf__detect/Reshape_3", "StatefulPartitionedCall/model/tf__detect/Reshape_5", "StatefulPartitionedCall/model/tf__detect/concat_3/axis"], "attr": {"Tidx": {"type": "DT_INT32"}, "T": {"type": "DT_FLOAT"}, "N": {"i": "3"}}}, {"name": "Identity", "op": "Identity", "input": ["StatefulPartitionedCall/model/tf__detect/concat_3"], "attr": {"T": {"type": "DT_FLOAT"}}}], "library": {}, "versions": {"producer": 561}}, "weightsManifest": [{"paths": ["group1-shard1of7.bin", "group1-shard2of7.bin", "group1-shard3of7.bin", "group1-shard4of7.bin", "group1-shard5of7.bin", "group1-shard6of7.bin", "group1-shard7of7.bin"], "weights": [{"name": "StatefulPartitionedCall/model/tf__detect/strided_slice_2/stack", "shape": [2], "dtype": "int32"}, {"name": "StatefulPartitionedCall/model/tf__detect/strided_slice_2/stack_1", "shape": [2], "dtype": "int32"}, {"name": "StatefulPartitionedCall/model/tf__detect/strided_slice_2/stack_2", "shape": [2], "dtype": "int32"}, {"name": "StatefulPartitionedCall/model/tf__detect/mul_1/y", "shape": [], "dtype": "float32"}, {"name": "StatefulPartitionedCall/model/tf__detect/sub", "shape": [1, 1, 6400, 2], "dtype": "float32"}, {"name": "StatefulPartitionedCall/model/tf__detect/mul_2", "shape": [1, 2], "dtype": "float32"}, {"name": "StatefulPartitionedCall/model/tf__detect/strided_slice_4/stack", "shape": [2], "dtype": "int32"}, {"name": "StatefulPartitionedCall/model/tf__detect/strided_slice_4/stack_1", "shape": [2], "dtype": "int32"}, {"name": "StatefulPartitionedCall/model/tf__detect/strided_slice_4/stack_2", "shape": [2], "dtype": "int32"}, {"name": "StatefulPartitionedCall/model/tf__detect/mul_3/y", "shape": [], "dtype": "float32"}, {"name": "StatefulPartitionedCall/model/tf__detect/mul_4", "shape": [1, 3, 1, 2], "dtype": "float32"}, {"name": "StatefulPartitionedCall/model/tf__detect/tf__conv2d/conv2d_59/Conv2D/ReadVariableOp", "shape": [1, 1, 128, 21], "dtype": "float32"}, {"name": "StatefulPartitionedCall/model/tf__detect/tf__conv2d/conv2d_59/BiasAdd/ReadVariableOp", "shape": [21], "dtype": "float32"}, {"name": "StatefulPartitionedCall/model/tf__detect/Reshape/shape_1", "shape": [4], "dtype": "int32"}, {"name": "StatefulPartitionedCall/model/tf__detect/transpose/perm", "shape": [4], "dtype": "int32"}, {"name": "StatefulPartitionedCall/model/tf__detect/strided_slice_6/stack", "shape": [2], "dtype": "int32"}, {"name": "StatefulPartitionedCall/model/tf__detect/strided_slice_6/stack_1", "shape": [2], "dtype": "int32"}, {"name": "StatefulPartitionedCall/model/tf__detect/strided_slice_6/stack_2", "shape": [2], "dtype": "int32"}, {"name": "StatefulPartitionedCall/model/tf__detect/concat/axis", "shape": [], "dtype": "int32"}, {"name": "StatefulPartitionedCall/model/tf__detect/Reshape_1/shape_1", "shape": [3], "dtype": "int32"}, {"name": "StatefulPartitionedCall/model/tf__detect/strided_slice_9/stack", "shape": [2], "dtype": "int32"}, {"name": "StatefulPartitionedCall/model/tf__detect/strided_slice_9/stack_1", "shape": [2], "dtype": "int32"}, {"name": "StatefulPartitionedCall/model/tf__detect/strided_slice_9/stack_2", "shape": [2], "dtype": "int32"}, {"name": "StatefulPartitionedCall/model/tf__detect/mul_8/y", "shape": [], "dtype": "float32"}, {"name": "StatefulPartitionedCall/model/tf__detect/sub_1", "shape": [1, 1, 1600, 2], "dtype": "float32"}, {"name": "StatefulPartitionedCall/model/tf__detect/mul_9", "shape": [1, 2], "dtype": "float32"}, {"name": "StatefulPartitionedCall/model/tf__detect/strided_slice_11/stack", "shape": [2], "dtype": "int32"}, {"name": "StatefulPartitionedCall/model/tf__detect/strided_slice_11/stack_1", "shape": [2], "dtype": "int32"}, {"name": "StatefulPartitionedCall/model/tf__detect/strided_slice_11/stack_2", "shape": [2], "dtype": "int32"}, {"name": "StatefulPartitionedCall/model/tf__detect/mul_10/y", "shape": [], "dtype": "float32"}, {"name": "StatefulPartitionedCall/model/tf__detect/mul_11", "shape": [1, 3, 1, 2], "dtype": "float32"}, {"name": "StatefulPartitionedCall/model/tf__detect/tf__conv2d_1/conv2d_60/Conv2D/ReadVariableOp", "shape": [1, 1, 256, 21], "dtype": "float32"}, {"name": "StatefulPartitionedCall/model/tf__detect/tf__conv2d_1/conv2d_60/BiasAdd/ReadVariableOp", "shape": [21], "dtype": "float32"}, {"name": "StatefulPartitionedCall/model/tf__detect/Reshape_2/shape_1", "shape": [4], "dtype": "int32"}, {"name": "StatefulPartitionedCall/model/tf__detect/transpose_1/perm", "shape": [4], "dtype": "int32"}, {"name": "StatefulPartitionedCall/model/tf__detect/strided_slice_13/stack", "shape": [2], "dtype": "int32"}, {"name": "StatefulPartitionedCall/model/tf__detect/strided_slice_13/stack_1", "shape": [2], "dtype": "int32"}, {"name": "StatefulPartitionedCall/model/tf__detect/strided_slice_13/stack_2", "shape": [2], "dtype": "int32"}, {"name": "StatefulPartitionedCall/model/tf__detect/concat_1/axis", "shape": [], "dtype": "int32"}, {"name": "StatefulPartitionedCall/model/tf__detect/Reshape_3/shape_1", "shape": [3], "dtype": "int32"}, {"name": "StatefulPartitionedCall/model/tf__detect/strided_slice_16/stack", "shape": [2], "dtype": "int32"}, {"name": "StatefulPartitionedCall/model/tf__detect/strided_slice_16/stack_1", "shape": [2], "dtype": "int32"}, {"name": "StatefulPartitionedCall/model/tf__detect/strided_slice_16/stack_2", "shape": [2], "dtype": "int32"}, {"name": "StatefulPartitionedCall/model/tf__detect/mul_15/y", "shape": [], "dtype": "float32"}, {"name": "StatefulPartitionedCall/model/tf__detect/sub_2", "shape": [1, 1, 400, 2], "dtype": "float32"}, {"name": "StatefulPartitionedCall/model/tf__detect/mul_16", "shape": [1, 2], "dtype": "float32"}, {"name": "StatefulPartitionedCall/model/tf__detect/strided_slice_18/stack", "shape": [2], "dtype": "int32"}, {"name": "StatefulPartitionedCall/model/tf__detect/strided_slice_18/stack_1", "shape": [2], "dtype": "int32"}, {"name": "StatefulPartitionedCall/model/tf__detect/strided_slice_18/stack_2", "shape": [2], "dtype": "int32"}, {"name": "StatefulPartitionedCall/model/tf__detect/mul_17/y", "shape": [], "dtype": "float32"}, {"name": "StatefulPartitionedCall/model/tf__detect/mul_18", "shape": [1, 3, 1, 2], "dtype": "float32"}, {"name": "StatefulPartitionedCall/model/tf__upsample_1/resize/size", "shape": [2], "dtype": "int32"}, {"name": "StatefulPartitionedCall/model/tf__concat_1/concat/axis", "shape": [], "dtype": "int32"}, {"name": "StatefulPartitionedCall/model/tf__c3_5/concat/axis", "shape": [], "dtype": "int32"}, {"name": "unknown_238", "shape": [4, 2], "dtype": "int32"}, {"name": "StatefulPartitionedCall/model/tf__upsample/resize/size", "shape": [2], "dtype": "int32"}, {"name": "StatefulPartitionedCall/model/tf__concat/concat/axis", "shape": [], "dtype": "int32"}, {"name": "StatefulPartitionedCall/model/tf__c3_4/concat/axis", "shape": [], "dtype": "int32"}, {"name": "StatefulPartitionedCall/model/tf__concat_2/concat/axis", "shape": [], "dtype": "int32"}, {"name": "StatefulPartitionedCall/model/tf__c3_6/concat/axis", "shape": [], "dtype": "int32"}, {"name": "unknown_269", "shape": [4, 2], "dtype": "int32"}, {"name": "StatefulPartitionedCall/model/tf__focus/strided_slice/stack", "shape": [4], "dtype": "int32"}, {"name": "StatefulPartitionedCall/model/tf__focus/strided_slice/stack_1", "shape": [4], "dtype": "int32"}, {"name": "StatefulPartitionedCall/model/tf__focus/strided_slice/stack_2", "shape": [4], "dtype": "int32"}, {"name": "StatefulPartitionedCall/model/tf__focus/strided_slice_1/stack", "shape": [4], "dtype": "int32"}, {"name": "StatefulPartitionedCall/model/tf__focus/strided_slice_1/stack_1", "shape": [4], "dtype": "int32"}, {"name": "StatefulPartitionedCall/model/tf__focus/strided_slice_1/stack_2", "shape": [4], "dtype": "int32"}, {"name": "StatefulPartitionedCall/model/tf__focus/strided_slice_2/stack", "shape": [4], "dtype": "int32"}, {"name": "StatefulPartitionedCall/model/tf__focus/strided_slice_2/stack_1", "shape": [4], "dtype": "int32"}, {"name": "StatefulPartitionedCall/model/tf__focus/strided_slice_2/stack_2", "shape": [4], "dtype": "int32"}, {"name": "StatefulPartitionedCall/model/tf__focus/strided_slice_3/stack", "shape": [4], "dtype": "int32"}, {"name": "StatefulPartitionedCall/model/tf__focus/strided_slice_3/stack_1", "shape": [4], "dtype": "int32"}, {"name": "StatefulPartitionedCall/model/tf__focus/strided_slice_3/stack_2", "shape": [4], "dtype": "int32"}, {"name": "StatefulPartitionedCall/model/tf__focus/concat/axis", "shape": [], "dtype": "int32"}, {"name": "unknown_4", "shape": [4, 2], "dtype": "int32"}, {"name": "StatefulPartitionedCall/model/tf__c3/concat/axis", "shape": [], "dtype": "int32"}, {"name": "unknown_35", "shape": [4, 2], "dtype": "int32"}, {"name": "StatefulPartitionedCall/model/tf__c3_1/concat/axis", "shape": [], "dtype": "int32"}, {"name": "unknown_86", "shape": [4, 2], "dtype": "int32"}, {"name": "StatefulPartitionedCall/model/tf__c3_2/concat/axis", "shape": [], "dtype": "int32"}, {"name": "unknown_137", "shape": [4, 2], "dtype": "int32"}, {"name": "StatefulPartitionedCall/model/tf_spp/concat/axis", "shape": [], "dtype": "int32"}, {"name": "StatefulPartitionedCall/model/tf__c3_3/concat/axis", "shape": [], "dtype": "int32"}, {"name": "StatefulPartitionedCall/model/tf__concat_3/concat/axis", "shape": [], "dtype": "int32"}, {"name": "StatefulPartitionedCall/model/tf__c3_7/concat/axis", "shape": [], "dtype": "int32"}, {"name": "StatefulPartitionedCall/model/tf__detect/tf__conv2d_2/conv2d_61/Conv2D/ReadVariableOp", "shape": [1, 1, 512, 21], "dtype": "float32"}, {"name": "StatefulPartitionedCall/model/tf__detect/tf__conv2d_2/conv2d_61/BiasAdd/ReadVariableOp", "shape": [21], "dtype": "float32"}, {"name": "StatefulPartitionedCall/model/tf__detect/Reshape_4/shape_1", "shape": [4], "dtype": "int32"}, {"name": "StatefulPartitionedCall/model/tf__detect/transpose_2/perm", "shape": [4], "dtype": "int32"}, {"name": "StatefulPartitionedCall/model/tf__detect/strided_slice_20/stack", "shape": [2], "dtype": "int32"}, {"name": "StatefulPartitionedCall/model/tf__detect/strided_slice_20/stack_1", "shape": [2], "dtype": "int32"}, {"name": "StatefulPartitionedCall/model/tf__detect/strided_slice_20/stack_2", "shape": [2], "dtype": "int32"}, {"name": "StatefulPartitionedCall/model/tf__detect/concat_2/axis", "shape": [], "dtype": "int32"}, {"name": "StatefulPartitionedCall/model/tf__detect/Reshape_5/shape_1", "shape": [3], "dtype": "int32"}, {"name": "StatefulPartitionedCall/model/tf__detect/concat_3/axis", "shape": [], "dtype": "int32"}, {"name": "StatefulPartitionedCall/model/tf__focus/tf__conv/conv2d/Conv2D_weights", "shape": [3, 3, 12, 32], "dtype": "float32"}, {"name": "StatefulPartitionedCall/model/tf__focus/tf__conv/conv2d/Conv2D_bn_offset", "shape": [32], "dtype": "float32"}, {"name": "StatefulPartitionedCall/model/tf__conv_1/sequential/conv2d_1/Conv2D_weights", "shape": [3, 3, 32, 64], "dtype": "float32"}, {"name": "StatefulPartitionedCall/model/tf__conv_1/sequential/conv2d_1/Conv2D_bn_offset", "shape": [64], "dtype": "float32"}, {"name": "StatefulPartitionedCall/model/tf__c3/tf__conv_2/conv2d_2/Conv2D_weights", "shape": [1, 1, 64, 32], "dtype": "float32"}, {"name": "StatefulPartitionedCall/model/tf__c3/tf__conv_2/conv2d_2/Conv2D_bn_offset", "shape": [32], "dtype": "float32"}, {"name": "StatefulPartitionedCall/model/tf__c3/tf__conv_3/conv2d_3/Conv2D_weights", "shape": [1, 1, 64, 32], "dtype": "float32"}, {"name": "StatefulPartitionedCall/model/tf__c3/tf__conv_3/conv2d_3/Conv2D_bn_offset", "shape": [32], "dtype": "float32"}, {"name": "StatefulPartitionedCall/model/tf__c3/sequential_1/tf__bottleneck/tf__conv_5/conv2d_5/Conv2D_weights", "shape": [1, 1, 32, 32], "dtype": "float32"}, {"name": "StatefulPartitionedCall/model/tf__c3/sequential_1/tf__bottleneck/tf__conv_5/conv2d_5/Conv2D_bn_offset", "shape": [32], "dtype": "float32"}, {"name": "StatefulPartitionedCall/model/tf__c3/sequential_1/tf__bottleneck/tf__conv_6/conv2d_6/Conv2D_weights", "shape": [3, 3, 32, 32], "dtype": "float32"}, {"name": "StatefulPartitionedCall/model/tf__c3/sequential_1/tf__bottleneck/tf__conv_6/conv2d_6/Conv2D_bn_offset", "shape": [32], "dtype": "float32"}, {"name": "StatefulPartitionedCall/model/tf__c3/tf__conv_4/conv2d_4/Conv2D_weights", "shape": [1, 1, 64, 64], "dtype": "float32"}, {"name": "StatefulPartitionedCall/model/tf__conv_53/sequential_12/conv2d_53/Conv2D_weights", "shape": [3, 3, 256, 256], "dtype": "float32"}, {"name": "StatefulPartitionedCall/model/tf__c3/tf__conv_4/conv2d_4/Conv2D_bn_offset", "shape": [64], "dtype": "float32"}, {"name": "StatefulPartitionedCall/model/tf__conv_7/sequential_2/conv2d_7/Conv2D_weights", "shape": [3, 3, 64, 128], "dtype": "float32"}, {"name": "StatefulPartitionedCall/model/tf__conv_7/sequential_2/conv2d_7/Conv2D_bn_offset", "shape": [128], "dtype": "float32"}, {"name": "StatefulPartitionedCall/model/tf__c3_1/tf__conv_8/conv2d_8/Conv2D_weights", "shape": [1, 1, 128, 64], "dtype": "float32"}, {"name": "StatefulPartitionedCall/model/tf__conv_53/sequential_12/conv2d_53/Conv2D_bn_offset", "shape": [256], "dtype": "float32"}, {"name": "StatefulPartitionedCall/model/tf__c3_1/tf__conv_8/conv2d_8/Conv2D_bn_offset", "shape": [64], "dtype": "float32"}, {"name": "StatefulPartitionedCall/model/tf__c3_1/tf__conv_9/conv2d_9/Conv2D_weights", "shape": [1, 1, 128, 64], "dtype": "float32"}, {"name": "StatefulPartitionedCall/model/tf__c3_1/tf__conv_9/conv2d_9/Conv2D_bn_offset", "shape": [64], "dtype": "float32"}, {"name": "StatefulPartitionedCall/model/tf__c3_1/sequential_3/tf__bottleneck_1/tf__conv_11/conv2d_11/Conv2D_weights", "shape": [1, 1, 64, 64], "dtype": "float32"}, {"name": "StatefulPartitionedCall/model/tf__c3_1/sequential_3/tf__bottleneck_1/tf__conv_11/conv2d_11/Conv2D_bn_offset", "shape": [64], "dtype": "float32"}, {"name": "StatefulPartitionedCall/model/tf__c3_1/sequential_3/tf__bottleneck_1/tf__conv_12/conv2d_12/Conv2D_weights", "shape": [3, 3, 64, 64], "dtype": "float32"}, {"name": "StatefulPartitionedCall/model/tf__c3_1/sequential_3/tf__bottleneck_1/tf__conv_12/conv2d_12/Conv2D_bn_offset", "shape": [64], "dtype": "float32"}, {"name": "StatefulPartitionedCall/model/tf__c3_1/sequential_3/tf__bottleneck_2/tf__conv_13/conv2d_13/Conv2D_weights", "shape": [1, 1, 64, 64], "dtype": "float32"}, {"name": "StatefulPartitionedCall/model/tf__c3_1/sequential_3/tf__bottleneck_2/tf__conv_13/conv2d_13/Conv2D_bn_offset", "shape": [64], "dtype": "float32"}, {"name": "StatefulPartitionedCall/model/tf__c3_1/sequential_3/tf__bottleneck_2/tf__conv_14/conv2d_14/Conv2D_weights", "shape": [3, 3, 64, 64], "dtype": "float32"}, {"name": "StatefulPartitionedCall/model/tf__c3_7/tf__conv_54/conv2d_54/Conv2D_weights", "shape": [1, 1, 512, 256], "dtype": "float32"}, {"name": "StatefulPartitionedCall/model/tf__c3_1/sequential_3/tf__bottleneck_2/tf__conv_14/conv2d_14/Conv2D_bn_offset", "shape": [64], "dtype": "float32"}, {"name": "StatefulPartitionedCall/model/tf__c3_1/sequential_3/tf__bottleneck_3/tf__conv_15/conv2d_15/Conv2D_weights", "shape": [1, 1, 64, 64], "dtype": "float32"}, {"name": "StatefulPartitionedCall/model/tf__c3_1/sequential_3/tf__bottleneck_3/tf__conv_15/conv2d_15/Conv2D_bn_offset", "shape": [64], "dtype": "float32"}, {"name": "StatefulPartitionedCall/model/tf__c3_1/sequential_3/tf__bottleneck_3/tf__conv_16/conv2d_16/Conv2D_weights", "shape": [3, 3, 64, 64], "dtype": "float32"}, {"name": "StatefulPartitionedCall/model/tf__c3_7/tf__conv_54/conv2d_54/Conv2D_bn_offset", "shape": [256], "dtype": "float32"}, {"name": "StatefulPartitionedCall/model/tf__c3_1/sequential_3/tf__bottleneck_3/tf__conv_16/conv2d_16/Conv2D_bn_offset", "shape": [64], "dtype": "float32"}, {"name": "StatefulPartitionedCall/model/tf__c3_1/tf__conv_10/conv2d_10/Conv2D_weights", "shape": [1, 1, 128, 128], "dtype": "float32"}, {"name": "StatefulPartitionedCall/model/tf__c3_1/tf__conv_10/conv2d_10/Conv2D_bn_offset", "shape": [128], "dtype": "float32"}, {"name": "StatefulPartitionedCall/model/tf__conv_17/sequential_4/conv2d_17/Conv2D_weights", "shape": [3, 3, 128, 256], "dtype": "float32"}, {"name": "StatefulPartitionedCall/model/tf__conv_17/sequential_4/conv2d_17/Conv2D_bn_offset", "shape": [256], "dtype": "float32"}, {"name": "StatefulPartitionedCall/model/tf__c3_2/tf__conv_18/conv2d_18/Conv2D_weights", "shape": [1, 1, 256, 128], "dtype": "float32"}, {"name": "StatefulPartitionedCall/model/tf__c3_2/tf__conv_18/conv2d_18/Conv2D_bn_offset", "shape": [128], "dtype": "float32"}, {"name": "StatefulPartitionedCall/model/tf__c3_2/tf__conv_19/conv2d_19/Conv2D_weights", "shape": [1, 1, 256, 128], "dtype": "float32"}, {"name": "StatefulPartitionedCall/model/tf__c3_7/tf__conv_55/conv2d_55/Conv2D_weights", "shape": [1, 1, 512, 256], "dtype": "float32"}, {"name": "StatefulPartitionedCall/model/tf__c3_2/tf__conv_19/conv2d_19/Conv2D_bn_offset", "shape": [128], "dtype": "float32"}, {"name": "StatefulPartitionedCall/model/tf__c3_2/sequential_5/tf__bottleneck_4/tf__conv_21/conv2d_21/Conv2D_weights", "shape": [1, 1, 128, 128], "dtype": "float32"}, {"name": "StatefulPartitionedCall/model/tf__c3_2/sequential_5/tf__bottleneck_4/tf__conv_21/conv2d_21/Conv2D_bn_offset", "shape": [128], "dtype": "float32"}, {"name": "StatefulPartitionedCall/model/tf__c3_2/sequential_5/tf__bottleneck_4/tf__conv_22/conv2d_22/Conv2D_weights", "shape": [3, 3, 128, 128], "dtype": "float32"}, {"name": "StatefulPartitionedCall/model/tf__c3_7/tf__conv_55/conv2d_55/Conv2D_bn_offset", "shape": [256], "dtype": "float32"}, {"name": "StatefulPartitionedCall/model/tf__c3_2/sequential_5/tf__bottleneck_4/tf__conv_22/conv2d_22/Conv2D_bn_offset", "shape": [128], "dtype": "float32"}, {"name": "StatefulPartitionedCall/model/tf__c3_2/sequential_5/tf__bottleneck_5/tf__conv_23/conv2d_23/Conv2D_weights", "shape": [1, 1, 128, 128], "dtype": "float32"}, {"name": "StatefulPartitionedCall/model/tf__c3_2/sequential_5/tf__bottleneck_5/tf__conv_23/conv2d_23/Conv2D_bn_offset", "shape": [128], "dtype": "float32"}, {"name": "StatefulPartitionedCall/model/tf__c3_2/sequential_5/tf__bottleneck_5/tf__conv_24/conv2d_24/Conv2D_weights", "shape": [3, 3, 128, 128], "dtype": "float32"}, {"name": "StatefulPartitionedCall/model/tf__c3_2/sequential_5/tf__bottleneck_5/tf__conv_24/conv2d_24/Conv2D_bn_offset", "shape": [128], "dtype": "float32"}, {"name": "StatefulPartitionedCall/model/tf__c3_2/sequential_5/tf__bottleneck_6/tf__conv_25/conv2d_25/Conv2D_weights", "shape": [1, 1, 128, 128], "dtype": "float32"}, {"name": "StatefulPartitionedCall/model/tf__c3_2/sequential_5/tf__bottleneck_6/tf__conv_25/conv2d_25/Conv2D_bn_offset", "shape": [128], "dtype": "float32"}, {"name": "StatefulPartitionedCall/model/tf__c3_2/sequential_5/tf__bottleneck_6/tf__conv_26/conv2d_26/Conv2D_weights", "shape": [3, 3, 128, 128], "dtype": "float32"}, {"name": "StatefulPartitionedCall/model/tf__c3_7/sequential_13/tf__bottleneck_11/tf__conv_57/conv2d_57/Conv2D_weights", "shape": [1, 1, 256, 256], "dtype": "float32"}, {"name": "StatefulPartitionedCall/model/tf__c3_2/sequential_5/tf__bottleneck_6/tf__conv_26/conv2d_26/Conv2D_bn_offset", "shape": [128], "dtype": "float32"}, {"name": "StatefulPartitionedCall/model/tf__c3_2/tf__conv_20/conv2d_20/Conv2D_weights", "shape": [1, 1, 256, 256], "dtype": "float32"}, {"name": "StatefulPartitionedCall/model/tf__c3_2/tf__conv_20/conv2d_20/Conv2D_bn_offset", "shape": [256], "dtype": "float32"}, {"name": "StatefulPartitionedCall/model/tf__conv_27/sequential_6/conv2d_27/Conv2D_weights", "shape": [3, 3, 256, 512], "dtype": "float32"}, {"name": "StatefulPartitionedCall/model/tf__c3_7/sequential_13/tf__bottleneck_11/tf__conv_57/conv2d_57/Conv2D_bn_offset", "shape": [256], "dtype": "float32"}, {"name": "StatefulPartitionedCall/model/tf__conv_27/sequential_6/conv2d_27/Conv2D_bn_offset", "shape": [512], "dtype": "float32"}, {"name": "StatefulPartitionedCall/model/tf_spp/tf__conv_28/conv2d_28/Conv2D_weights", "shape": [1, 1, 512, 256], "dtype": "float32"}, {"name": "StatefulPartitionedCall/model/tf_spp/tf__conv_28/conv2d_28/Conv2D_bn_offset", "shape": [256], "dtype": "float32"}, {"name": "StatefulPartitionedCall/model/tf_spp/tf__conv_29/conv2d_29/Conv2D_weights", "shape": [1, 1, 1024, 512], "dtype": "float32"}, {"name": "StatefulPartitionedCall/model/tf_spp/tf__conv_29/conv2d_29/Conv2D_bn_offset", "shape": [512], "dtype": "float32"}, {"name": "StatefulPartitionedCall/model/tf__c3_3/tf__conv_30/conv2d_30/Conv2D_weights", "shape": [1, 1, 512, 256], "dtype": "float32"}, {"name": "StatefulPartitionedCall/model/tf__c3_3/tf__conv_30/conv2d_30/Conv2D_bn_offset", "shape": [256], "dtype": "float32"}, {"name": "StatefulPartitionedCall/model/tf__c3_3/tf__conv_31/conv2d_31/Conv2D_weights", "shape": [1, 1, 512, 256], "dtype": "float32"}, {"name": "StatefulPartitionedCall/model/tf__c3_7/sequential_13/tf__bottleneck_11/tf__conv_58/conv2d_58/Conv2D_weights", "shape": [3, 3, 256, 256], "dtype": "float32"}, {"name": "StatefulPartitionedCall/model/tf__c3_3/tf__conv_31/conv2d_31/Conv2D_bn_offset", "shape": [256], "dtype": "float32"}, {"name": "StatefulPartitionedCall/model/tf__c3_3/sequential_7/tf__bottleneck_7/tf__conv_33/conv2d_33/Conv2D_weights", "shape": [1, 1, 256, 256], "dtype": "float32"}, {"name": "StatefulPartitionedCall/model/tf__c3_3/sequential_7/tf__bottleneck_7/tf__conv_33/conv2d_33/Conv2D_bn_offset", "shape": [256], "dtype": "float32"}, {"name": "StatefulPartitionedCall/model/tf__c3_3/sequential_7/tf__bottleneck_7/tf__conv_34/conv2d_34/Conv2D_weights", "shape": [3, 3, 256, 256], "dtype": "float32"}, {"name": "StatefulPartitionedCall/model/tf__c3_7/sequential_13/tf__bottleneck_11/tf__conv_58/conv2d_58/Conv2D_bn_offset", "shape": [256], "dtype": "float32"}, {"name": "StatefulPartitionedCall/model/tf__c3_3/sequential_7/tf__bottleneck_7/tf__conv_34/conv2d_34/Conv2D_bn_offset", "shape": [256], "dtype": "float32"}, {"name": "StatefulPartitionedCall/model/tf__c3_3/tf__conv_32/conv2d_32/Conv2D_weights", "shape": [1, 1, 512, 512], "dtype": "float32"}, {"name": "StatefulPartitionedCall/model/tf__c3_3/tf__conv_32/conv2d_32/Conv2D_bn_offset", "shape": [512], "dtype": "float32"}, {"name": "StatefulPartitionedCall/model/tf__conv_35/conv2d_35/Conv2D_weights", "shape": [1, 1, 512, 256], "dtype": "float32"}, {"name": "StatefulPartitionedCall/model/tf__conv_35/conv2d_35/Conv2D_bn_offset", "shape": [256], "dtype": "float32"}, {"name": "StatefulPartitionedCall/model/tf__c3_4/tf__conv_36/conv2d_36/Conv2D_weights", "shape": [1, 1, 512, 128], "dtype": "float32"}, {"name": "StatefulPartitionedCall/model/tf__c3_4/tf__conv_36/conv2d_36/Conv2D_bn_offset", "shape": [128], "dtype": "float32"}, {"name": "StatefulPartitionedCall/model/tf__c3_4/tf__conv_37/conv2d_37/Conv2D_weights", "shape": [1, 1, 512, 128], "dtype": "float32"}, {"name": "StatefulPartitionedCall/model/tf__c3_4/tf__conv_37/conv2d_37/Conv2D_bn_offset", "shape": [128], "dtype": "float32"}, {"name": "StatefulPartitionedCall/model/tf__c3_4/sequential_8/tf__bottleneck_8/tf__conv_39/conv2d_39/Conv2D_weights", "shape": [1, 1, 128, 128], "dtype": "float32"}, {"name": "StatefulPartitionedCall/model/tf__c3_7/tf__conv_56/conv2d_56/Conv2D_weights", "shape": [1, 1, 512, 512], "dtype": "float32"}, {"name": "StatefulPartitionedCall/model/tf__c3_4/sequential_8/tf__bottleneck_8/tf__conv_39/conv2d_39/Conv2D_bn_offset", "shape": [128], "dtype": "float32"}, {"name": "StatefulPartitionedCall/model/tf__c3_4/sequential_8/tf__bottleneck_8/tf__conv_40/conv2d_40/Conv2D_weights", "shape": [3, 3, 128, 128], "dtype": "float32"}, {"name": "StatefulPartitionedCall/model/tf__c3_4/sequential_8/tf__bottleneck_8/tf__conv_40/conv2d_40/Conv2D_bn_offset", "shape": [128], "dtype": "float32"}, {"name": "StatefulPartitionedCall/model/tf__c3_4/tf__conv_38/conv2d_38/Conv2D_weights", "shape": [1, 1, 256, 256], "dtype": "float32"}, {"name": "StatefulPartitionedCall/model/tf__c3_7/tf__conv_56/conv2d_56/Conv2D_bn_offset", "shape": [512], "dtype": "float32"}, {"name": "StatefulPartitionedCall/model/tf__c3_4/tf__conv_38/conv2d_38/Conv2D_bn_offset", "shape": [256], "dtype": "float32"}, {"name": "StatefulPartitionedCall/model/tf__conv_41/conv2d_41/Conv2D_weights", "shape": [1, 1, 256, 128], "dtype": "float32"}, {"name": "StatefulPartitionedCall/model/tf__conv_41/conv2d_41/Conv2D_bn_offset", "shape": [128], "dtype": "float32"}, {"name": "StatefulPartitionedCall/model/tf__c3_5/tf__conv_42/conv2d_42/Conv2D_weights", "shape": [1, 1, 256, 64], "dtype": "float32"}, {"name": "StatefulPartitionedCall/model/tf__c3_5/tf__conv_42/conv2d_42/Conv2D_bn_offset", "shape": [64], "dtype": "float32"}, {"name": "StatefulPartitionedCall/model/tf__c3_5/tf__conv_43/conv2d_43/Conv2D_weights", "shape": [1, 1, 256, 64], "dtype": "float32"}, {"name": "StatefulPartitionedCall/model/tf__c3_5/tf__conv_43/conv2d_43/Conv2D_bn_offset", "shape": [64], "dtype": "float32"}, {"name": "StatefulPartitionedCall/model/tf__c3_5/sequential_9/tf__bottleneck_9/tf__conv_45/conv2d_45/Conv2D_weights", "shape": [1, 1, 64, 64], "dtype": "float32"}, {"name": "StatefulPartitionedCall/model/tf__c3_5/sequential_9/tf__bottleneck_9/tf__conv_45/conv2d_45/Conv2D_bn_offset", "shape": [64], "dtype": "float32"}, {"name": "StatefulPartitionedCall/model/tf__c3_5/sequential_9/tf__bottleneck_9/tf__conv_46/conv2d_46/Conv2D_weights", "shape": [3, 3, 64, 64], "dtype": "float32"}, {"name": "StatefulPartitionedCall/model/tf__c3_5/sequential_9/tf__bottleneck_9/tf__conv_46/conv2d_46/Conv2D_bn_offset", "shape": [64], "dtype": "float32"}, {"name": "StatefulPartitionedCall/model/tf__c3_5/tf__conv_44/conv2d_44/Conv2D_weights", "shape": [1, 1, 128, 128], "dtype": "float32"}, {"name": "StatefulPartitionedCall/model/tf__c3_5/tf__conv_44/conv2d_44/Conv2D_bn_offset", "shape": [128], "dtype": "float32"}, {"name": "StatefulPartitionedCall/model/tf__conv_47/sequential_10/conv2d_47/Conv2D_weights", "shape": [3, 3, 128, 128], "dtype": "float32"}, {"name": "StatefulPartitionedCall/model/tf__conv_47/sequential_10/conv2d_47/Conv2D_bn_offset", "shape": [128], "dtype": "float32"}, {"name": "StatefulPartitionedCall/model/tf__c3_6/tf__conv_48/conv2d_48/Conv2D_weights", "shape": [1, 1, 256, 128], "dtype": "float32"}, {"name": "StatefulPartitionedCall/model/tf__c3_6/tf__conv_48/conv2d_48/Conv2D_bn_offset", "shape": [128], "dtype": "float32"}, {"name": "StatefulPartitionedCall/model/tf__c3_6/tf__conv_49/conv2d_49/Conv2D_weights", "shape": [1, 1, 256, 128], "dtype": "float32"}, {"name": "StatefulPartitionedCall/model/tf__c3_6/tf__conv_49/conv2d_49/Conv2D_bn_offset", "shape": [128], "dtype": "float32"}, {"name": "StatefulPartitionedCall/model/tf__c3_6/sequential_11/tf__bottleneck_10/tf__conv_51/conv2d_51/Conv2D_weights", "shape": [1, 1, 128, 128], "dtype": "float32"}, {"name": "StatefulPartitionedCall/model/tf__c3_6/sequential_11/tf__bottleneck_10/tf__conv_51/conv2d_51/Conv2D_bn_offset", "shape": [128], "dtype": "float32"}, {"name": "StatefulPartitionedCall/model/tf__c3_6/sequential_11/tf__bottleneck_10/tf__conv_52/conv2d_52/Conv2D_weights", "shape": [3, 3, 128, 128], "dtype": "float32"}, {"name": "StatefulPartitionedCall/model/tf__c3_6/sequential_11/tf__bottleneck_10/tf__conv_52/conv2d_52/Conv2D_bn_offset", "shape": [128], "dtype": "float32"}, {"name": "StatefulPartitionedCall/model/tf__c3_6/tf__conv_50/conv2d_50/Conv2D_weights", "shape": [1, 1, 256, 256], "dtype": "float32"}, {"name": "StatefulPartitionedCall/model/tf__c3_6/tf__conv_50/conv2d_50/Conv2D_bn_offset", "shape": [256], "dtype": "float32"}]}]}